layer {
  name: "noise"
  type: "RandVec"
  top: "noise"
  randvec_param {
    batch_size: 128
    dim: 128
    lower: -1.0
    upper: 1.0
  }
}
layer {
  name: "fc"
  type: "InnerProduct"
  bottom: "noise"
  top: "fc"
  inner_product_param {
    num_output: 4096
    weight_filler {
      type: "xavier"
    }
    bias_filler {
      type: "constant"
    }
  }
}
layer {
  name: "fc_reshape"
  type: "Reshape"
  bottom: "fc"
  top: "fc_reshape"
  reshape_param {
    shape {
      dim: 128
      dim: 64
      dim: 8
      dim: 8
    }
  }
}
layer {
  name: "fc_relu"
  type: "ReLU"
  bottom: "fc_reshape"
  top: "fc_relu"
}
layer {
  name: "res1conv1"
  type: "Convolution"
  bottom: "fc_relu"
  top: "res1conv1"
  convolution_param {
    num_output: 64
    pad: 1
    kernel_size: 3
    stride: 1
    weight_filler {
      type: "gaussian"
      std: 0.019999999552965164
    }
  }
}
layer {
  name: "res1bn1"
  type: "BatchNorm"
  bottom: "res1conv1"
  top: "res1bn1"
}
layer {
  name: "res1relu1"
  type: "ReLU"
  bottom: "res1bn1"
  top: "res1relu1"
}
layer {
  name: "res1conv2"
  type: "Convolution"
  bottom: "res1relu1"
  top: "res1conv2"
  convolution_param {
    num_output: 64
    pad: 1
    kernel_size: 3
    stride: 1
    weight_filler {
      type: "gaussian"
      std: 0.019999999552965164
    }
  }
}
layer {
  name: "res1bn2"
  type: "BatchNorm"
  bottom: "res1conv2"
  top: "res1bn2"
}
layer {
  name: "res1add"
  type: "Eltwise"
  bottom: "fc_relu"
  bottom: "res1bn2"
  top: "res1add"
}
layer {
  name: "res2conv1"
  type: "Convolution"
  bottom: "res1add"
  top: "res2conv1"
  convolution_param {
    num_output: 64
    pad: 1
    kernel_size: 3
    stride: 1
    weight_filler {
      type: "gaussian"
      std: 0.019999999552965164
    }
  }
}
layer {
  name: "res2bn1"
  type: "BatchNorm"
  bottom: "res2conv1"
  top: "res2bn1"
}
layer {
  name: "res2relu1"
  type: "ReLU"
  bottom: "res2bn1"
  top: "res2relu1"
}
layer {
  name: "res2conv2"
  type: "Convolution"
  bottom: "res2relu1"
  top: "res2conv2"
  convolution_param {
    num_output: 64
    pad: 1
    kernel_size: 3
    stride: 1
    weight_filler {
      type: "gaussian"
      std: 0.019999999552965164
    }
  }
}
layer {
  name: "res2bn2"
  type: "BatchNorm"
  bottom: "res2conv2"
  top: "res2bn2"
}
layer {
  name: "res2add"
  type: "Eltwise"
  bottom: "res1add"
  bottom: "res2bn2"
  top: "res2add"
}
layer {
  name: "res3conv1"
  type: "Convolution"
  bottom: "res2add"
  top: "res3conv1"
  convolution_param {
    num_output: 64
    pad: 1
    kernel_size: 3
    stride: 1
    weight_filler {
      type: "gaussian"
      std: 0.019999999552965164
    }
  }
}
layer {
  name: "res3bn1"
  type: "BatchNorm"
  bottom: "res3conv1"
  top: "res3bn1"
}
layer {
  name: "res3relu1"
  type: "ReLU"
  bottom: "res3bn1"
  top: "res3relu1"
}
layer {
  name: "res3conv2"
  type: "Convolution"
  bottom: "res3relu1"
  top: "res3conv2"
  convolution_param {
    num_output: 64
    pad: 1
    kernel_size: 3
    stride: 1
    weight_filler {
      type: "gaussian"
      std: 0.019999999552965164
    }
  }
}
layer {
  name: "res3bn2"
  type: "BatchNorm"
  bottom: "res3conv2"
  top: "res3bn2"
}
layer {
  name: "res3add"
  type: "Eltwise"
  bottom: "res2add"
  bottom: "res3bn2"
  top: "res3add"
}
layer {
  name: "res4conv1"
  type: "Convolution"
  bottom: "res3add"
  top: "res4conv1"
  convolution_param {
    num_output: 64
    pad: 1
    kernel_size: 3
    stride: 1
    weight_filler {
      type: "gaussian"
      std: 0.019999999552965164
    }
  }
}
layer {
  name: "res4bn1"
  type: "BatchNorm"
  bottom: "res4conv1"
  top: "res4bn1"
}
layer {
  name: "res4relu1"
  type: "ReLU"
  bottom: "res4bn1"
  top: "res4relu1"
}
layer {
  name: "res4conv2"
  type: "Convolution"
  bottom: "res4relu1"
  top: "res4conv2"
  convolution_param {
    num_output: 64
    pad: 1
    kernel_size: 3
    stride: 1
    weight_filler {
      type: "gaussian"
      std: 0.019999999552965164
    }
  }
}
layer {
  name: "res4bn2"
  type: "BatchNorm"
  bottom: "res4conv2"
  top: "res4bn2"
}
layer {
  name: "res4add"
  type: "Eltwise"
  bottom: "res3add"
  bottom: "res4bn2"
  top: "res4add"
}
layer {
  name: "res5conv1"
  type: "Convolution"
  bottom: "res4add"
  top: "res5conv1"
  convolution_param {
    num_output: 64
    pad: 1
    kernel_size: 3
    stride: 1
    weight_filler {
      type: "gaussian"
      std: 0.019999999552965164
    }
  }
}
layer {
  name: "res5bn1"
  type: "BatchNorm"
  bottom: "res5conv1"
  top: "res5bn1"
}
layer {
  name: "res5relu1"
  type: "ReLU"
  bottom: "res5bn1"
  top: "res5relu1"
}
layer {
  name: "res5conv2"
  type: "Convolution"
  bottom: "res5relu1"
  top: "res5conv2"
  convolution_param {
    num_output: 64
    pad: 1
    kernel_size: 3
    stride: 1
    weight_filler {
      type: "gaussian"
      std: 0.019999999552965164
    }
  }
}
layer {
  name: "res5bn2"
  type: "BatchNorm"
  bottom: "res5conv2"
  top: "res5bn2"
}
layer {
  name: "res5add"
  type: "Eltwise"
  bottom: "res4add"
  bottom: "res5bn2"
  top: "res5add"
}
layer {
  name: "conv"
  type: "Convolution"
  bottom: "res5add"
  top: "conv"
  convolution_param {
    num_output: 64
    pad: 1
    kernel_size: 3
    stride: 1
    weight_filler {
      type: "xavier"
    }
    bias_filler {
      type: "constant"
    }
  }
}
layer {
  name: "bn"
  type: "BatchNorm"
  bottom: "conv"
  top: "bn"
}
layer {
  name: "add"
  type: "Eltwise"
  bottom: "bn"
  bottom: "fc_relu"
  top: "add"
}
layer {
  name: "subpxconv1"
  type: "Convolution"
  bottom: "add"
  top: "subpxconv1"
  convolution_param {
    num_output: 256
    pad: 1
    kernel_size: 3
    stride: 1
    weight_filler {
      type: "xavier"
    }
    bias_filler {
      type: "constant"
    }
  }
}
layer {
  name: "pxs1"
  type: "reshape"
  bottom: "subpxconv1"
  top: "pxs1"
  reshape_param {
    pixelshuffler: 2
  }
}
layer {
  name: "relu1"
  type: "ReLU"
  bottom: "pxs1"
  top: "relu1"
}
layer {
  name: "subpxconv2"
  type: "Convolution"
  bottom: "relu1"
  top: "subpxconv2"
  convolution_param {
    num_output: 256
    pad: 1
    kernel_size: 3
    stride: 1
    weight_filler {
      type: "xavier"
    }
    bias_filler {
      type: "constant"
    }
  }
}
layer {
  name: "pxs2"
  type: "reshape"
  bottom: "subpxconv2"
  top: "pxs2"
  reshape_param {
    pixelshuffler: 2
  }
}
layer {
  name: "relu2"
  type: "ReLU"
  bottom: "pxs2"
  top: "relu2"
}
layer {
  name: "subpxconv3"
  type: "Convolution"
  bottom: "relu2"
  top: "subpxconv3"
  convolution_param {
    num_output: 256
    pad: 1
    kernel_size: 3
    stride: 1
    weight_filler {
      type: "xavier"
    }
    bias_filler {
      type: "constant"
    }
  }
}
layer {
  name: "pxs3"
  type: "reshape"
  bottom: "subpxconv3"
  top: "pxs3"
  reshape_param {
    pixelshuffler: 2
  }
}
layer {
  name: "relu3"
  type: "ReLU"
  bottom: "pxs3"
  top: "relu3"
}
layer {
  name: "subpxconv4"
  type: "Convolution"
  bottom: "relu3"
  top: "subpxconv4"
  convolution_param {
    num_output: 256
    pad: 1
    kernel_size: 3
    stride: 1
    weight_filler {
      type: "xavier"
    }
    bias_filler {
      type: "constant"
    }
  }
}
layer {
  name: "pxs4"
  type: "reshape"
  bottom: "subpxconv4"
  top: "pxs4"
  reshape_param {
    pixelshuffler: 2
  }
}
layer {
  name: "relu4"
  type: "ReLU"
  bottom: "pxs4"
  top: "relu4"
}
layer {
  name: "subpxconv5"
  type: "Convolution"
  bottom: "relu4"
  top: "subpxconv5"
  convolution_param {
    num_output: 256
    pad: 1
    kernel_size: 3
    stride: 1
    weight_filler {
      type: "xavier"
    }
    bias_filler {
      type: "constant"
    }
  }
}
layer {
  name: "pxs5"
  type: "reshape"
  bottom: "subpxconv5"
  top: "pxs5"
  reshape_param {
    pixelshuffler: 2
  }
}
layer {
  name: "relu5"
  type: "ReLU"
  bottom: "pxs5"
  top: "relu5"
}
layer {
  name: "subpxconv6"
  type: "Convolution"
  bottom: "relu5"
  top: "subpxconv6"
  convolution_param {
    num_output: 256
    pad: 1
    kernel_size: 3
    stride: 1
    weight_filler {
      type: "xavier"
    }
    bias_filler {
      type: "constant"
    }
  }
}
layer {
  name: "pxs6"
  type: "reshape"
  bottom: "subpxconv6"
  top: "pxs6"
  reshape_param {
    pixelshuffler: 2
  }
}
layer {
  name: "relu6"
  type: "ReLU"
  bottom: "pxs6"
  top: "relu6"
}
layer {
  name: "subpxconv7"
  type: "Convolution"
  bottom: "relu6"
  top: "subpxconv7"
  convolution_param {
    num_output: 256
    pad: 1
    kernel_size: 3
    stride: 1
    weight_filler {
      type: "xavier"
    }
    bias_filler {
      type: "constant"
    }
  }
}
layer {
  name: "pxs7"
  type: "reshape"
  bottom: "subpxconv7"
  top: "pxs7"
  reshape_param {
    pixelshuffler: 2
  }
}
layer {
  name: "relu7"
  type: "ReLU"
  bottom: "pxs7"
  top: "relu7"
}
layer {
  name: "subpxconv8"
  type: "Convolution"
  bottom: "relu7"
  top: "subpxconv8"
  convolution_param {
    num_output: 256
    pad: 1
    kernel_size: 3
    stride: 1
    weight_filler {
      type: "xavier"
    }
    bias_filler {
      type: "constant"
    }
  }
}
layer {
  name: "pxs8"
  type: "reshape"
  bottom: "subpxconv8"
  top: "pxs8"
  reshape_param {
    pixelshuffler: 2
  }
}
layer {
  name: "relu8"
  type: "ReLU"
  bottom: "pxs8"
  top: "relu8"
}
layer {
  name: "subpxconv9"
  type: "Convolution"
  bottom: "relu8"
  top: "subpxconv9"
  convolution_param {
    num_output: 256
    pad: 1
    kernel_size: 3
    stride: 1
    weight_filler {
      type: "xavier"
    }
    bias_filler {
      type: "constant"
    }
  }
}
layer {
  name: "pxs9"
  type: "reshape"
  bottom: "subpxconv9"
  top: "pxs9"
  reshape_param {
    pixelshuffler: 2
  }
}
layer {
  name: "relu9"
  type: "ReLU"
  bottom: "pxs9"
  top: "relu9"
}
layer {
  name: "subpxconv10"
  type: "Convolution"
  bottom: "relu9"
  top: "subpxconv10"
  convolution_param {
    num_output: 256
    pad: 1
    kernel_size: 3
    stride: 1
    weight_filler {
      type: "xavier"
    }
    bias_filler {
      type: "constant"
    }
  }
}
layer {
  name: "pxs10"
  type: "reshape"
  bottom: "subpxconv10"
  top: "pxs10"
  reshape_param {
    pixelshuffler: 2
  }
}
layer {
  name: "relu10"
  type: "ReLU"
  bottom: "pxs10"
  top: "relu10"
}
layer {
  name: "subpxconv11"
  type: "Convolution"
  bottom: "relu10"
  top: "subpxconv11"
  convolution_param {
    num_output: 256
    pad: 1
    kernel_size: 3
    stride: 1
    weight_filler {
      type: "xavier"
    }
    bias_filler {
      type: "constant"
    }
  }
}
layer {
  name: "pxs11"
  type: "reshape"
  bottom: "subpxconv11"
  top: "pxs11"
  reshape_param {
    pixelshuffler: 2
  }
}
layer {
  name: "relu11"
  type: "ReLU"
  bottom: "pxs11"
  top: "relu11"
}
layer {
  name: "subpxconv12"
  type: "Convolution"
  bottom: "relu11"
  top: "subpxconv12"
  convolution_param {
    num_output: 256
    pad: 1
    kernel_size: 3
    stride: 1
    weight_filler {
      type: "xavier"
    }
    bias_filler {
      type: "constant"
    }
  }
}
layer {
  name: "pxs12"
  type: "reshape"
  bottom: "subpxconv12"
  top: "pxs12"
  reshape_param {
    pixelshuffler: 2
  }
}
layer {
  name: "relu12"
  type: "ReLU"
  bottom: "pxs12"
  top: "relu12"
}
layer {
  name: "subpxconv13"
  type: "Convolution"
  bottom: "relu12"
  top: "subpxconv13"
  convolution_param {
    num_output: 256
    pad: 1
    kernel_size: 3
    stride: 1
    weight_filler {
      type: "xavier"
    }
    bias_filler {
      type: "constant"
    }
  }
}
layer {
  name: "pxs13"
  type: "reshape"
  bottom: "subpxconv13"
  top: "pxs13"
  reshape_param {
    pixelshuffler: 2
  }
}
layer {
  name: "relu13"
  type: "ReLU"
  bottom: "pxs13"
  top: "relu13"
}
layer {
  name: "subpxconv14"
  type: "Convolution"
  bottom: "relu13"
  top: "subpxconv14"
  convolution_param {
    num_output: 256
    pad: 1
    kernel_size: 3
    stride: 1
    weight_filler {
      type: "xavier"
    }
    bias_filler {
      type: "constant"
    }
  }
}
layer {
  name: "pxs14"
  type: "reshape"
  bottom: "subpxconv14"
  top: "pxs14"
  reshape_param {
    pixelshuffler: 2
  }
}
layer {
  name: "relu14"
  type: "ReLU"
  bottom: "pxs14"
  top: "relu14"
}
layer {
  name: "subpxconv15"
  type: "Convolution"
  bottom: "relu14"
  top: "subpxconv15"
  convolution_param {
    num_output: 256
    pad: 1
    kernel_size: 3
    stride: 1
    weight_filler {
      type: "xavier"
    }
    bias_filler {
      type: "constant"
    }
  }
}
layer {
  name: "pxs15"
  type: "reshape"
  bottom: "subpxconv15"
  top: "pxs15"
  reshape_param {
    pixelshuffler: 2
  }
}
layer {
  name: "relu15"
  type: "ReLU"
  bottom: "pxs15"
  top: "relu15"
}
layer {
  name: "subpxconv16"
  type: "Convolution"
  bottom: "relu15"
  top: "subpxconv16"
  convolution_param {
    num_output: 256
    pad: 1
    kernel_size: 3
    stride: 1
    weight_filler {
      type: "xavier"
    }
    bias_filler {
      type: "constant"
    }
  }
}
layer {
  name: "pxs16"
  type: "reshape"
  bottom: "subpxconv16"
  top: "pxs16"
  reshape_param {
    pixelshuffler: 2
  }
}
layer {
  name: "relu16"
  type: "ReLU"
  bottom: "pxs16"
  top: "relu16"
}
layer {
  name: "subpxconv17"
  type: "Convolution"
  bottom: "relu16"
  top: "subpxconv17"
  convolution_param {
    num_output: 256
    pad: 1
    kernel_size: 3
    stride: 1
    weight_filler {
      type: "xavier"
    }
    bias_filler {
      type: "constant"
    }
  }
}
layer {
  name: "pxs17"
  type: "reshape"
  bottom: "subpxconv17"
  top: "pxs17"
  reshape_param {
    pixelshuffler: 2
  }
}
layer {
  name: "relu17"
  type: "ReLU"
  bottom: "pxs17"
  top: "relu17"
}
layer {
  name: "subpxconv18"
  type: "Convolution"
  bottom: "relu17"
  top: "subpxconv18"
  convolution_param {
    num_output: 256
    pad: 1
    kernel_size: 3
    stride: 1
    weight_filler {
      type: "xavier"
    }
    bias_filler {
      type: "constant"
    }
  }
}
layer {
  name: "pxs18"
  type: "reshape"
  bottom: "subpxconv18"
  top: "pxs18"
  reshape_param {
    pixelshuffler: 2
  }
}
layer {
  name: "relu18"
  type: "ReLU"
  bottom: "pxs18"
  top: "relu18"
}
layer {
  name: "subpxconv19"
  type: "Convolution"
  bottom: "relu18"
  top: "subpxconv19"
  convolution_param {
    num_output: 256
    pad: 1
    kernel_size: 3
    stride: 1
    weight_filler {
      type: "xavier"
    }
    bias_filler {
      type: "constant"
    }
  }
}
layer {
  name: "pxs19"
  type: "reshape"
  bottom: "subpxconv19"
  top: "pxs19"
  reshape_param {
    pixelshuffler: 2
  }
}
layer {
  name: "relu19"
  type: "ReLU"
  bottom: "pxs19"
  top: "relu19"
}
layer {
  name: "subpxconv20"
  type: "Convolution"
  bottom: "relu19"
  top: "subpxconv20"
  convolution_param {
    num_output: 256
    pad: 1
    kernel_size: 3
    stride: 1
    weight_filler {
      type: "xavier"
    }
    bias_filler {
      type: "constant"
    }
  }
}
layer {
  name: "pxs20"
  type: "reshape"
  bottom: "subpxconv20"
  top: "pxs20"
  reshape_param {
    pixelshuffler: 2
  }
}
layer {
  name: "relu20"
  type: "ReLU"
  bottom: "pxs20"
  top: "relu20"
}
layer {
  name: "subpxconv21"
  type: "Convolution"
  bottom: "relu20"
  top: "subpxconv21"
  convolution_param {
    num_output: 256
    pad: 1
    kernel_size: 3
    stride: 1
    weight_filler {
      type: "xavier"
    }
    bias_filler {
      type: "constant"
    }
  }
}
layer {
  name: "pxs21"
  type: "reshape"
  bottom: "subpxconv21"
  top: "pxs21"
  reshape_param {
    pixelshuffler: 2
  }
}
layer {
  name: "relu21"
  type: "ReLU"
  bottom: "pxs21"
  top: "relu21"
}
layer {
  name: "subpxconv22"
  type: "Convolution"
  bottom: "relu21"
  top: "subpxconv22"
  convolution_param {
    num_output: 256
    pad: 1
    kernel_size: 3
    stride: 1
    weight_filler {
      type: "xavier"
    }
    bias_filler {
      type: "constant"
    }
  }
}
layer {
  name: "pxs22"
  type: "reshape"
  bottom: "subpxconv22"
  top: "pxs22"
  reshape_param {
    pixelshuffler: 2
  }
}
layer {
  name: "relu22"
  type: "ReLU"
  bottom: "pxs22"
  top: "relu22"
}
layer {
  name: "subpxconv23"
  type: "Convolution"
  bottom: "relu22"
  top: "subpxconv23"
  convolution_param {
    num_output: 256
    pad: 1
    kernel_size: 3
    stride: 1
    weight_filler {
      type: "xavier"
    }
    bias_filler {
      type: "constant"
    }
  }
}
layer {
  name: "pxs23"
  type: "reshape"
  bottom: "subpxconv23"
  top: "pxs23"
  reshape_param {
    pixelshuffler: 2
  }
}
layer {
  name: "relu23"
  type: "ReLU"
  bottom: "pxs23"
  top: "relu23"
}
layer {
  name: "subpxconv24"
  type: "Convolution"
  bottom: "relu23"
  top: "subpxconv24"
  convolution_param {
    num_output: 256
    pad: 1
    kernel_size: 3
    stride: 1
    weight_filler {
      type: "xavier"
    }
    bias_filler {
      type: "constant"
    }
  }
}
layer {
  name: "pxs24"
  type: "reshape"
  bottom: "subpxconv24"
  top: "pxs24"
  reshape_param {
    pixelshuffler: 2
  }
}
layer {
  name: "relu24"
  type: "ReLU"
  bottom: "pxs24"
  top: "relu24"
}
layer {
  name: "subpxconv25"
  type: "Convolution"
  bottom: "relu24"
  top: "subpxconv25"
  convolution_param {
    num_output: 256
    pad: 1
    kernel_size: 3
    stride: 1
    weight_filler {
      type: "xavier"
    }
    bias_filler {
      type: "constant"
    }
  }
}
layer {
  name: "pxs25"
  type: "reshape"
  bottom: "subpxconv25"
  top: "pxs25"
  reshape_param {
    pixelshuffler: 2
  }
}
layer {
  name: "relu25"
  type: "ReLU"
  bottom: "pxs25"
  top: "relu25"
}
layer {
  name: "subpxconv26"
  type: "Convolution"
  bottom: "relu25"
  top: "subpxconv26"
  convolution_param {
    num_output: 256
    pad: 1
    kernel_size: 3
    stride: 1
    weight_filler {
      type: "xavier"
    }
    bias_filler {
      type: "constant"
    }
  }
}
layer {
  name: "pxs26"
  type: "reshape"
  bottom: "subpxconv26"
  top: "pxs26"
  reshape_param {
    pixelshuffler: 2
  }
}
layer {
  name: "relu26"
  type: "ReLU"
  bottom: "pxs26"
  top: "relu26"
}
layer {
  name: "subpxconv27"
  type: "Convolution"
  bottom: "relu26"
  top: "subpxconv27"
  convolution_param {
    num_output: 256
    pad: 1
    kernel_size: 3
    stride: 1
    weight_filler {
      type: "xavier"
    }
    bias_filler {
      type: "constant"
    }
  }
}
layer {
  name: "pxs27"
  type: "reshape"
  bottom: "subpxconv27"
  top: "pxs27"
  reshape_param {
    pixelshuffler: 2
  }
}
layer {
  name: "relu27"
  type: "ReLU"
  bottom: "pxs27"
  top: "relu27"
}
layer {
  name: "subpxconv28"
  type: "Convolution"
  bottom: "relu27"
  top: "subpxconv28"
  convolution_param {
    num_output: 256
    pad: 1
    kernel_size: 3
    stride: 1
    weight_filler {
      type: "xavier"
    }
    bias_filler {
      type: "constant"
    }
  }
}
layer {
  name: "pxs28"
  type: "reshape"
  bottom: "subpxconv28"
  top: "pxs28"
  reshape_param {
    pixelshuffler: 2
  }
}
layer {
  name: "relu28"
  type: "ReLU"
  bottom: "pxs28"
  top: "relu28"
}
layer {
  name: "subpxconv29"
  type: "Convolution"
  bottom: "relu28"
  top: "subpxconv29"
  convolution_param {
    num_output: 256
    pad: 1
    kernel_size: 3
    stride: 1
    weight_filler {
      type: "xavier"
    }
    bias_filler {
      type: "constant"
    }
  }
}
layer {
  name: "pxs29"
  type: "reshape"
  bottom: "subpxconv29"
  top: "pxs29"
  reshape_param {
    pixelshuffler: 2
  }
}
layer {
  name: "relu29"
  type: "ReLU"
  bottom: "pxs29"
  top: "relu29"
}
layer {
  name: "subpxconv30"
  type: "Convolution"
  bottom: "relu29"
  top: "subpxconv30"
  convolution_param {
    num_output: 256
    pad: 1
    kernel_size: 3
    stride: 1
    weight_filler {
      type: "xavier"
    }
    bias_filler {
      type: "constant"
    }
  }
}
layer {
  name: "pxs30"
  type: "reshape"
  bottom: "subpxconv30"
  top: "pxs30"
  reshape_param {
    pixelshuffler: 2
  }
}
layer {
  name: "relu30"
  type: "ReLU"
  bottom: "pxs30"
  top: "relu30"
}
layer {
  name: "subpxconv31"
  type: "Convolution"
  bottom: "relu30"
  top: "subpxconv31"
  convolution_param {
    num_output: 256
    pad: 1
    kernel_size: 3
    stride: 1
    weight_filler {
      type: "xavier"
    }
    bias_filler {
      type: "constant"
    }
  }
}
layer {
  name: "pxs31"
  type: "reshape"
  bottom: "subpxconv31"
  top: "pxs31"
  reshape_param {
    pixelshuffler: 2
  }
}
layer {
  name: "relu31"
  type: "ReLU"
  bottom: "pxs31"
  top: "relu31"
}
layer {
  name: "subpxconv32"
  type: "Convolution"
  bottom: "relu31"
  top: "subpxconv32"
  convolution_param {
    num_output: 256
    pad: 1
    kernel_size: 3
    stride: 1
    weight_filler {
      type: "xavier"
    }
    bias_filler {
      type: "constant"
    }
  }
}
layer {
  name: "pxs32"
  type: "reshape"
  bottom: "subpxconv32"
  top: "pxs32"
  reshape_param {
    pixelshuffler: 2
  }
}
layer {
  name: "relu32"
  type: "ReLU"
  bottom: "pxs32"
  top: "relu32"
}
layer {
  name: "subpxconv33"
  type: "Convolution"
  bottom: "relu32"
  top: "subpxconv33"
  convolution_param {
    num_output: 256
    pad: 1
    kernel_size: 3
    stride: 1
    weight_filler {
      type: "xavier"
    }
    bias_filler {
      type: "constant"
    }
  }
}
layer {
  name: "pxs33"
  type: "reshape"
  bottom: "subpxconv33"
  top: "pxs33"
  reshape_param {
    pixelshuffler: 2
  }
}
layer {
  name: "relu33"
  type: "ReLU"
  bottom: "pxs33"
  top: "relu33"
}
layer {
  name: "subpxconv34"
  type: "Convolution"
  bottom: "relu33"
  top: "subpxconv34"
  convolution_param {
    num_output: 256
    pad: 1
    kernel_size: 3
    stride: 1
    weight_filler {
      type: "xavier"
    }
    bias_filler {
      type: "constant"
    }
  }
}
layer {
  name: "pxs34"
  type: "reshape"
  bottom: "subpxconv34"
  top: "pxs34"
  reshape_param {
    pixelshuffler: 2
  }
}
layer {
  name: "relu34"
  type: "ReLU"
  bottom: "pxs34"
  top: "relu34"
}
layer {
  name: "subpxconv35"
  type: "Convolution"
  bottom: "relu34"
  top: "subpxconv35"
  convolution_param {
    num_output: 256
    pad: 1
    kernel_size: 3
    stride: 1
    weight_filler {
      type: "xavier"
    }
    bias_filler {
      type: "constant"
    }
  }
}
layer {
  name: "pxs35"
  type: "reshape"
  bottom: "subpxconv35"
  top: "pxs35"
  reshape_param {
    pixelshuffler: 2
  }
}
layer {
  name: "relu35"
  type: "ReLU"
  bottom: "pxs35"
  top: "relu35"
}
layer {
  name: "subpxconv36"
  type: "Convolution"
  bottom: "relu35"
  top: "subpxconv36"
  convolution_param {
    num_output: 256
    pad: 1
    kernel_size: 3
    stride: 1
    weight_filler {
      type: "xavier"
    }
    bias_filler {
      type: "constant"
    }
  }
}
layer {
  name: "pxs36"
  type: "reshape"
  bottom: "subpxconv36"
  top: "pxs36"
  reshape_param {
    pixelshuffler: 2
  }
}
layer {
  name: "relu36"
  type: "ReLU"
  bottom: "pxs36"
  top: "relu36"
}
layer {
  name: "subpxconv37"
  type: "Convolution"
  bottom: "relu36"
  top: "subpxconv37"
  convolution_param {
    num_output: 256
    pad: 1
    kernel_size: 3
    stride: 1
    weight_filler {
      type: "xavier"
    }
    bias_filler {
      type: "constant"
    }
  }
}
layer {
  name: "pxs37"
  type: "reshape"
  bottom: "subpxconv37"
  top: "pxs37"
  reshape_param {
    pixelshuffler: 2
  }
}
layer {
  name: "relu37"
  type: "ReLU"
  bottom: "pxs37"
  top: "relu37"
}
layer {
  name: "subpxconv38"
  type: "Convolution"
  bottom: "relu37"
  top: "subpxconv38"
  convolution_param {
    num_output: 256
    pad: 1
    kernel_size: 3
    stride: 1
    weight_filler {
      type: "xavier"
    }
    bias_filler {
      type: "constant"
    }
  }
}
layer {
  name: "pxs38"
  type: "reshape"
  bottom: "subpxconv38"
  top: "pxs38"
  reshape_param {
    pixelshuffler: 2
  }
}
layer {
  name: "relu38"
  type: "ReLU"
  bottom: "pxs38"
  top: "relu38"
}
layer {
  name: "subpxconv39"
  type: "Convolution"
  bottom: "relu38"
  top: "subpxconv39"
  convolution_param {
    num_output: 256
    pad: 1
    kernel_size: 3
    stride: 1
    weight_filler {
      type: "xavier"
    }
    bias_filler {
      type: "constant"
    }
  }
}
layer {
  name: "pxs39"
  type: "reshape"
  bottom: "subpxconv39"
  top: "pxs39"
  reshape_param {
    pixelshuffler: 2
  }
}
layer {
  name: "relu39"
  type: "ReLU"
  bottom: "pxs39"
  top: "relu39"
}
layer {
  name: "subpxconv40"
  type: "Convolution"
  bottom: "relu39"
  top: "subpxconv40"
  convolution_param {
    num_output: 256
    pad: 1
    kernel_size: 3
    stride: 1
    weight_filler {
      type: "xavier"
    }
    bias_filler {
      type: "constant"
    }
  }
}
layer {
  name: "pxs40"
  type: "reshape"
  bottom: "subpxconv40"
  top: "pxs40"
  reshape_param {
    pixelshuffler: 2
  }
}
layer {
  name: "relu40"
  type: "ReLU"
  bottom: "pxs40"
  top: "relu40"
}
layer {
  name: "subpxconv41"
  type: "Convolution"
  bottom: "relu40"
  top: "subpxconv41"
  convolution_param {
    num_output: 256
    pad: 1
    kernel_size: 3
    stride: 1
    weight_filler {
      type: "xavier"
    }
    bias_filler {
      type: "constant"
    }
  }
}
layer {
  name: "pxs41"
  type: "reshape"
  bottom: "subpxconv41"
  top: "pxs41"
  reshape_param {
    pixelshuffler: 2
  }
}
layer {
  name: "relu41"
  type: "ReLU"
  bottom: "pxs41"
  top: "relu41"
}
layer {
  name: "subpxconv42"
  type: "Convolution"
  bottom: "relu41"
  top: "subpxconv42"
  convolution_param {
    num_output: 256
    pad: 1
    kernel_size: 3
    stride: 1
    weight_filler {
      type: "xavier"
    }
    bias_filler {
      type: "constant"
    }
  }
}
layer {
  name: "pxs42"
  type: "reshape"
  bottom: "subpxconv42"
  top: "pxs42"
  reshape_param {
    pixelshuffler: 2
  }
}
layer {
  name: "relu42"
  type: "ReLU"
  bottom: "pxs42"
  top: "relu42"
}
layer {
  name: "subpxconv43"
  type: "Convolution"
  bottom: "relu42"
  top: "subpxconv43"
  convolution_param {
    num_output: 256
    pad: 1
    kernel_size: 3
    stride: 1
    weight_filler {
      type: "xavier"
    }
    bias_filler {
      type: "constant"
    }
  }
}
layer {
  name: "pxs43"
  type: "reshape"
  bottom: "subpxconv43"
  top: "pxs43"
  reshape_param {
    pixelshuffler: 2
  }
}
layer {
  name: "relu43"
  type: "ReLU"
  bottom: "pxs43"
  top: "relu43"
}
layer {
  name: "subpxconv44"
  type: "Convolution"
  bottom: "relu43"
  top: "subpxconv44"
  convolution_param {
    num_output: 256
    pad: 1
    kernel_size: 3
    stride: 1
    weight_filler {
      type: "xavier"
    }
    bias_filler {
      type: "constant"
    }
  }
}
layer {
  name: "pxs44"
  type: "reshape"
  bottom: "subpxconv44"
  top: "pxs44"
  reshape_param {
    pixelshuffler: 2
  }
}
layer {
  name: "relu44"
  type: "ReLU"
  bottom: "pxs44"
  top: "relu44"
}
layer {
  name: "subpxconv45"
  type: "Convolution"
  bottom: "relu44"
  top: "subpxconv45"
  convolution_param {
    num_output: 256
    pad: 1
    kernel_size: 3
    stride: 1
    weight_filler {
      type: "xavier"
    }
    bias_filler {
      type: "constant"
    }
  }
}
layer {
  name: "pxs45"
  type: "reshape"
  bottom: "subpxconv45"
  top: "pxs45"
  reshape_param {
    pixelshuffler: 2
  }
}
layer {
  name: "relu45"
  type: "ReLU"
  bottom: "pxs45"
  top: "relu45"
}
layer {
  name: "subpxconv46"
  type: "Convolution"
  bottom: "relu45"
  top: "subpxconv46"
  convolution_param {
    num_output: 256
    pad: 1
    kernel_size: 3
    stride: 1
    weight_filler {
      type: "xavier"
    }
    bias_filler {
      type: "constant"
    }
  }
}
layer {
  name: "pxs46"
  type: "reshape"
  bottom: "subpxconv46"
  top: "pxs46"
  reshape_param {
    pixelshuffler: 2
  }
}
layer {
  name: "relu46"
  type: "ReLU"
  bottom: "pxs46"
  top: "relu46"
}
layer {
  name: "subpxconv47"
  type: "Convolution"
  bottom: "relu46"
  top: "subpxconv47"
  convolution_param {
    num_output: 256
    pad: 1
    kernel_size: 3
    stride: 1
    weight_filler {
      type: "xavier"
    }
    bias_filler {
      type: "constant"
    }
  }
}
layer {
  name: "pxs47"
  type: "reshape"
  bottom: "subpxconv47"
  top: "pxs47"
  reshape_param {
    pixelshuffler: 2
  }
}
layer {
  name: "relu47"
  type: "ReLU"
  bottom: "pxs47"
  top: "relu47"
}
layer {
  name: "subpxconv48"
  type: "Convolution"
  bottom: "relu47"
  top: "subpxconv48"
  convolution_param {
    num_output: 256
    pad: 1
    kernel_size: 3
    stride: 1
    weight_filler {
      type: "xavier"
    }
    bias_filler {
      type: "constant"
    }
  }
}
layer {
  name: "pxs48"
  type: "reshape"
  bottom: "subpxconv48"
  top: "pxs48"
  reshape_param {
    pixelshuffler: 2
  }
}
layer {
  name: "relu48"
  type: "ReLU"
  bottom: "pxs48"
  top: "relu48"
}
layer {
  name: "subpxconv49"
  type: "Convolution"
  bottom: "relu48"
  top: "subpxconv49"
  convolution_param {
    num_output: 256
    pad: 1
    kernel_size: 3
    stride: 1
    weight_filler {
      type: "xavier"
    }
    bias_filler {
      type: "constant"
    }
  }
}
layer {
  name: "pxs49"
  type: "reshape"
  bottom: "subpxconv49"
  top: "pxs49"
  reshape_param {
    pixelshuffler: 2
  }
}
layer {
  name: "relu49"
  type: "ReLU"
  bottom: "pxs49"
  top: "relu49"
}
layer {
  name: "subpxconv50"
  type: "Convolution"
  bottom: "relu49"
  top: "subpxconv50"
  convolution_param {
    num_output: 256
    pad: 1
    kernel_size: 3
    stride: 1
    weight_filler {
      type: "xavier"
    }
    bias_filler {
      type: "constant"
    }
  }
}
layer {
  name: "pxs50"
  type: "reshape"
  bottom: "subpxconv50"
  top: "pxs50"
  reshape_param {
    pixelshuffler: 2
  }
}
layer {
  name: "relu50"
  type: "ReLU"
  bottom: "pxs50"
  top: "relu50"
}
layer {
  name: "subpxconv51"
  type: "Convolution"
  bottom: "relu50"
  top: "subpxconv51"
  convolution_param {
    num_output: 256
    pad: 1
    kernel_size: 3
    stride: 1
    weight_filler {
      type: "xavier"
    }
    bias_filler {
      type: "constant"
    }
  }
}
layer {
  name: "pxs51"
  type: "reshape"
  bottom: "subpxconv51"
  top: "pxs51"
  reshape_param {
    pixelshuffler: 2
  }
}
layer {
  name: "relu51"
  type: "ReLU"
  bottom: "pxs51"
  top: "relu51"
}
layer {
  name: "subpxconv52"
  type: "Convolution"
  bottom: "relu51"
  top: "subpxconv52"
  convolution_param {
    num_output: 256
    pad: 1
    kernel_size: 3
    stride: 1
    weight_filler {
      type: "xavier"
    }
    bias_filler {
      type: "constant"
    }
  }
}
layer {
  name: "pxs52"
  type: "reshape"
  bottom: "subpxconv52"
  top: "pxs52"
  reshape_param {
    pixelshuffler: 2
  }
}
layer {
  name: "relu52"
  type: "ReLU"
  bottom: "pxs52"
  top: "relu52"
}
layer {
  name: "subpxconv53"
  type: "Convolution"
  bottom: "relu52"
  top: "subpxconv53"
  convolution_param {
    num_output: 256
    pad: 1
    kernel_size: 3
    stride: 1
    weight_filler {
      type: "xavier"
    }
    bias_filler {
      type: "constant"
    }
  }
}
layer {
  name: "pxs53"
  type: "reshape"
  bottom: "subpxconv53"
  top: "pxs53"
  reshape_param {
    pixelshuffler: 2
  }
}
layer {
  name: "relu53"
  type: "ReLU"
  bottom: "pxs53"
  top: "relu53"
}
layer {
  name: "subpxconv54"
  type: "Convolution"
  bottom: "relu53"
  top: "subpxconv54"
  convolution_param {
    num_output: 256
    pad: 1
    kernel_size: 3
    stride: 1
    weight_filler {
      type: "xavier"
    }
    bias_filler {
      type: "constant"
    }
  }
}
layer {
  name: "pxs54"
  type: "reshape"
  bottom: "subpxconv54"
  top: "pxs54"
  reshape_param {
    pixelshuffler: 2
  }
}
layer {
  name: "relu54"
  type: "ReLU"
  bottom: "pxs54"
  top: "relu54"
}
layer {
  name: "subpxconv55"
  type: "Convolution"
  bottom: "relu54"
  top: "subpxconv55"
  convolution_param {
    num_output: 256
    pad: 1
    kernel_size: 3
    stride: 1
    weight_filler {
      type: "xavier"
    }
    bias_filler {
      type: "constant"
    }
  }
}
layer {
  name: "pxs55"
  type: "reshape"
  bottom: "subpxconv55"
  top: "pxs55"
  reshape_param {
    pixelshuffler: 2
  }
}
layer {
  name: "relu55"
  type: "ReLU"
  bottom: "pxs55"
  top: "relu55"
}
layer {
  name: "subpxconv56"
  type: "Convolution"
  bottom: "relu55"
  top: "subpxconv56"
  convolution_param {
    num_output: 256
    pad: 1
    kernel_size: 3
    stride: 1
    weight_filler {
      type: "xavier"
    }
    bias_filler {
      type: "constant"
    }
  }
}
layer {
  name: "pxs56"
  type: "reshape"
  bottom: "subpxconv56"
  top: "pxs56"
  reshape_param {
    pixelshuffler: 2
  }
}
layer {
  name: "relu56"
  type: "ReLU"
  bottom: "pxs56"
  top: "relu56"
}
layer {
  name: "subpxconv57"
  type: "Convolution"
  bottom: "relu56"
  top: "subpxconv57"
  convolution_param {
    num_output: 256
    pad: 1
    kernel_size: 3
    stride: 1
    weight_filler {
      type: "xavier"
    }
    bias_filler {
      type: "constant"
    }
  }
}
layer {
  name: "pxs57"
  type: "reshape"
  bottom: "subpxconv57"
  top: "pxs57"
  reshape_param {
    pixelshuffler: 2
  }
}
layer {
  name: "relu57"
  type: "ReLU"
  bottom: "pxs57"
  top: "relu57"
}
layer {
  name: "subpxconv58"
  type: "Convolution"
  bottom: "relu57"
  top: "subpxconv58"
  convolution_param {
    num_output: 256
    pad: 1
    kernel_size: 3
    stride: 1
    weight_filler {
      type: "xavier"
    }
    bias_filler {
      type: "constant"
    }
  }
}
layer {
  name: "pxs58"
  type: "reshape"
  bottom: "subpxconv58"
  top: "pxs58"
  reshape_param {
    pixelshuffler: 2
  }
}
layer {
  name: "relu58"
  type: "ReLU"
  bottom: "pxs58"
  top: "relu58"
}
layer {
  name: "subpxconv59"
  type: "Convolution"
  bottom: "relu58"
  top: "subpxconv59"
  convolution_param {
    num_output: 256
    pad: 1
    kernel_size: 3
    stride: 1
    weight_filler {
      type: "xavier"
    }
    bias_filler {
      type: "constant"
    }
  }
}
layer {
  name: "pxs59"
  type: "reshape"
  bottom: "subpxconv59"
  top: "pxs59"
  reshape_param {
    pixelshuffler: 2
  }
}
layer {
  name: "relu59"
  type: "ReLU"
  bottom: "pxs59"
  top: "relu59"
}
layer {
  name: "subpxconv60"
  type: "Convolution"
  bottom: "relu59"
  top: "subpxconv60"
  convolution_param {
    num_output: 256
    pad: 1
    kernel_size: 3
    stride: 1
    weight_filler {
      type: "xavier"
    }
    bias_filler {
      type: "constant"
    }
  }
}
layer {
  name: "pxs60"
  type: "reshape"
  bottom: "subpxconv60"
  top: "pxs60"
  reshape_param {
    pixelshuffler: 2
  }
}
layer {
  name: "relu60"
  type: "ReLU"
  bottom: "pxs60"
  top: "relu60"
}
layer {
  name: "subpxconv61"
  type: "Convolution"
  bottom: "relu60"
  top: "subpxconv61"
  convolution_param {
    num_output: 256
    pad: 1
    kernel_size: 3
    stride: 1
    weight_filler {
      type: "xavier"
    }
    bias_filler {
      type: "constant"
    }
  }
}
layer {
  name: "pxs61"
  type: "reshape"
  bottom: "subpxconv61"
  top: "pxs61"
  reshape_param {
    pixelshuffler: 2
  }
}
layer {
  name: "relu61"
  type: "ReLU"
  bottom: "pxs61"
  top: "relu61"
}
layer {
  name: "subpxconv62"
  type: "Convolution"
  bottom: "relu61"
  top: "subpxconv62"
  convolution_param {
    num_output: 256
    pad: 1
    kernel_size: 3
    stride: 1
    weight_filler {
      type: "xavier"
    }
    bias_filler {
      type: "constant"
    }
  }
}
layer {
  name: "pxs62"
  type: "reshape"
  bottom: "subpxconv62"
  top: "pxs62"
  reshape_param {
    pixelshuffler: 2
  }
}
layer {
  name: "relu62"
  type: "ReLU"
  bottom: "pxs62"
  top: "relu62"
}
layer {
  name: "subpxconv63"
  type: "Convolution"
  bottom: "relu62"
  top: "subpxconv63"
  convolution_param {
    num_output: 256
    pad: 1
    kernel_size: 3
    stride: 1
    weight_filler {
      type: "xavier"
    }
    bias_filler {
      type: "constant"
    }
  }
}
layer {
  name: "pxs63"
  type: "reshape"
  bottom: "subpxconv63"
  top: "pxs63"
  reshape_param {
    pixelshuffler: 2
  }
}
layer {
  name: "relu63"
  type: "ReLU"
  bottom: "pxs63"
  top: "relu63"
}
layer {
  name: "subpxconv64"
  type: "Convolution"
  bottom: "relu63"
  top: "subpxconv64"
  convolution_param {
    num_output: 256
    pad: 1
    kernel_size: 3
    stride: 1
    weight_filler {
      type: "xavier"
    }
    bias_filler {
      type: "constant"
    }
  }
}
layer {
  name: "pxs64"
  type: "reshape"
  bottom: "subpxconv64"
  top: "pxs64"
  reshape_param {
    pixelshuffler: 2
  }
}
layer {
  name: "relu64"
  type: "ReLU"
  bottom: "pxs64"
  top: "relu64"
}
layer {
  name: "subpxconv65"
  type: "Convolution"
  bottom: "relu64"
  top: "subpxconv65"
  convolution_param {
    num_output: 256
    pad: 1
    kernel_size: 3
    stride: 1
    weight_filler {
      type: "xavier"
    }
    bias_filler {
      type: "constant"
    }
  }
}
layer {
  name: "pxs65"
  type: "reshape"
  bottom: "subpxconv65"
  top: "pxs65"
  reshape_param {
    pixelshuffler: 2
  }
}
layer {
  name: "relu65"
  type: "ReLU"
  bottom: "pxs65"
  top: "relu65"
}
layer {
  name: "subpxconv66"
  type: "Convolution"
  bottom: "relu65"
  top: "subpxconv66"
  convolution_param {
    num_output: 256
    pad: 1
    kernel_size: 3
    stride: 1
    weight_filler {
      type: "xavier"
    }
    bias_filler {
      type: "constant"
    }
  }
}
layer {
  name: "pxs66"
  type: "reshape"
  bottom: "subpxconv66"
  top: "pxs66"
  reshape_param {
    pixelshuffler: 2
  }
}
layer {
  name: "relu66"
  type: "ReLU"
  bottom: "pxs66"
  top: "relu66"
}
layer {
  name: "subpxconv67"
  type: "Convolution"
  bottom: "relu66"
  top: "subpxconv67"
  convolution_param {
    num_output: 256
    pad: 1
    kernel_size: 3
    stride: 1
    weight_filler {
      type: "xavier"
    }
    bias_filler {
      type: "constant"
    }
  }
}
layer {
  name: "pxs67"
  type: "reshape"
  bottom: "subpxconv67"
  top: "pxs67"
  reshape_param {
    pixelshuffler: 2
  }
}
layer {
  name: "relu67"
  type: "ReLU"
  bottom: "pxs67"
  top: "relu67"
}
layer {
  name: "subpxconv68"
  type: "Convolution"
  bottom: "relu67"
  top: "subpxconv68"
  convolution_param {
    num_output: 256
    pad: 1
    kernel_size: 3
    stride: 1
    weight_filler {
      type: "xavier"
    }
    bias_filler {
      type: "constant"
    }
  }
}
layer {
  name: "pxs68"
  type: "reshape"
  bottom: "subpxconv68"
  top: "pxs68"
  reshape_param {
    pixelshuffler: 2
  }
}
layer {
  name: "relu68"
  type: "ReLU"
  bottom: "pxs68"
  top: "relu68"
}
layer {
  name: "subpxconv69"
  type: "Convolution"
  bottom: "relu68"
  top: "subpxconv69"
  convolution_param {
    num_output: 256
    pad: 1
    kernel_size: 3
    stride: 1
    weight_filler {
      type: "xavier"
    }
    bias_filler {
      type: "constant"
    }
  }
}
layer {
  name: "pxs69"
  type: "reshape"
  bottom: "subpxconv69"
  top: "pxs69"
  reshape_param {
    pixelshuffler: 2
  }
}
layer {
  name: "relu69"
  type: "ReLU"
  bottom: "pxs69"
  top: "relu69"
}
layer {
  name: "subpxconv70"
  type: "Convolution"
  bottom: "relu69"
  top: "subpxconv70"
  convolution_param {
    num_output: 256
    pad: 1
    kernel_size: 3
    stride: 1
    weight_filler {
      type: "xavier"
    }
    bias_filler {
      type: "constant"
    }
  }
}
layer {
  name: "pxs70"
  type: "reshape"
  bottom: "subpxconv70"
  top: "pxs70"
  reshape_param {
    pixelshuffler: 2
  }
}
layer {
  name: "relu70"
  type: "ReLU"
  bottom: "pxs70"
  top: "relu70"
}
layer {
  name: "subpxconv71"
  type: "Convolution"
  bottom: "relu70"
  top: "subpxconv71"
  convolution_param {
    num_output: 256
    pad: 1
    kernel_size: 3
    stride: 1
    weight_filler {
      type: "xavier"
    }
    bias_filler {
      type: "constant"
    }
  }
}
layer {
  name: "pxs71"
  type: "reshape"
  bottom: "subpxconv71"
  top: "pxs71"
  reshape_param {
    pixelshuffler: 2
  }
}
layer {
  name: "relu71"
  type: "ReLU"
  bottom: "pxs71"
  top: "relu71"
}
layer {
  name: "subpxconv72"
  type: "Convolution"
  bottom: "relu71"
  top: "subpxconv72"
  convolution_param {
    num_output: 256
    pad: 1
    kernel_size: 3
    stride: 1
    weight_filler {
      type: "xavier"
    }
    bias_filler {
      type: "constant"
    }
  }
}
layer {
  name: "pxs72"
  type: "reshape"
  bottom: "subpxconv72"
  top: "pxs72"
  reshape_param {
    pixelshuffler: 2
  }
}
layer {
  name: "relu72"
  type: "ReLU"
  bottom: "pxs72"
  top: "relu72"
}
layer {
  name: "subpxconv73"
  type: "Convolution"
  bottom: "relu72"
  top: "subpxconv73"
  convolution_param {
    num_output: 256
    pad: 1
    kernel_size: 3
    stride: 1
    weight_filler {
      type: "xavier"
    }
    bias_filler {
      type: "constant"
    }
  }
}
layer {
  name: "pxs73"
  type: "reshape"
  bottom: "subpxconv73"
  top: "pxs73"
  reshape_param {
    pixelshuffler: 2
  }
}
layer {
  name: "relu73"
  type: "ReLU"
  bottom: "pxs73"
  top: "relu73"
}
layer {
  name: "subpxconv74"
  type: "Convolution"
  bottom: "relu73"
  top: "subpxconv74"
  convolution_param {
    num_output: 256
    pad: 1
    kernel_size: 3
    stride: 1
    weight_filler {
      type: "xavier"
    }
    bias_filler {
      type: "constant"
    }
  }
}
layer {
  name: "pxs74"
  type: "reshape"
  bottom: "subpxconv74"
  top: "pxs74"
  reshape_param {
    pixelshuffler: 2
  }
}
layer {
  name: "relu74"
  type: "ReLU"
  bottom: "pxs74"
  top: "relu74"
}
layer {
  name: "subpxconv75"
  type: "Convolution"
  bottom: "relu74"
  top: "subpxconv75"
  convolution_param {
    num_output: 256
    pad: 1
    kernel_size: 3
    stride: 1
    weight_filler {
      type: "xavier"
    }
    bias_filler {
      type: "constant"
    }
  }
}
layer {
  name: "pxs75"
  type: "reshape"
  bottom: "subpxconv75"
  top: "pxs75"
  reshape_param {
    pixelshuffler: 2
  }
}
layer {
  name: "relu75"
  type: "ReLU"
  bottom: "pxs75"
  top: "relu75"
}
layer {
  name: "subpxconv76"
  type: "Convolution"
  bottom: "relu75"
  top: "subpxconv76"
  convolution_param {
    num_output: 256
    pad: 1
    kernel_size: 3
    stride: 1
    weight_filler {
      type: "xavier"
    }
    bias_filler {
      type: "constant"
    }
  }
}
layer {
  name: "pxs76"
  type: "reshape"
  bottom: "subpxconv76"
  top: "pxs76"
  reshape_param {
    pixelshuffler: 2
  }
}
layer {
  name: "relu76"
  type: "ReLU"
  bottom: "pxs76"
  top: "relu76"
}
layer {
  name: "subpxconv77"
  type: "Convolution"
  bottom: "relu76"
  top: "subpxconv77"
  convolution_param {
    num_output: 256
    pad: 1
    kernel_size: 3
    stride: 1
    weight_filler {
      type: "xavier"
    }
    bias_filler {
      type: "constant"
    }
  }
}
layer {
  name: "pxs77"
  type: "reshape"
  bottom: "subpxconv77"
  top: "pxs77"
  reshape_param {
    pixelshuffler: 2
  }
}
layer {
  name: "relu77"
  type: "ReLU"
  bottom: "pxs77"
  top: "relu77"
}
layer {
  name: "subpxconv78"
  type: "Convolution"
  bottom: "relu77"
  top: "subpxconv78"
  convolution_param {
    num_output: 256
    pad: 1
    kernel_size: 3
    stride: 1
    weight_filler {
      type: "xavier"
    }
    bias_filler {
      type: "constant"
    }
  }
}
layer {
  name: "pxs78"
  type: "reshape"
  bottom: "subpxconv78"
  top: "pxs78"
  reshape_param {
    pixelshuffler: 2
  }
}
layer {
  name: "relu78"
  type: "ReLU"
  bottom: "pxs78"
  top: "relu78"
}
layer {
  name: "subpxconv79"
  type: "Convolution"
  bottom: "relu78"
  top: "subpxconv79"
  convolution_param {
    num_output: 256
    pad: 1
    kernel_size: 3
    stride: 1
    weight_filler {
      type: "xavier"
    }
    bias_filler {
      type: "constant"
    }
  }
}
layer {
  name: "pxs79"
  type: "reshape"
  bottom: "subpxconv79"
  top: "pxs79"
  reshape_param {
    pixelshuffler: 2
  }
}
layer {
  name: "relu79"
  type: "ReLU"
  bottom: "pxs79"
  top: "relu79"
}
layer {
  name: "subpxconv80"
  type: "Convolution"
  bottom: "relu79"
  top: "subpxconv80"
  convolution_param {
    num_output: 256
    pad: 1
    kernel_size: 3
    stride: 1
    weight_filler {
      type: "xavier"
    }
    bias_filler {
      type: "constant"
    }
  }
}
layer {
  name: "pxs80"
  type: "reshape"
  bottom: "subpxconv80"
  top: "pxs80"
  reshape_param {
    pixelshuffler: 2
  }
}
layer {
  name: "relu80"
  type: "ReLU"
  bottom: "pxs80"
  top: "relu80"
}
layer {
  name: "subpxconv81"
  type: "Convolution"
  bottom: "relu80"
  top: "subpxconv81"
  convolution_param {
    num_output: 256
    pad: 1
    kernel_size: 3
    stride: 1
    weight_filler {
      type: "xavier"
    }
    bias_filler {
      type: "constant"
    }
  }
}
layer {
  name: "pxs81"
  type: "reshape"
  bottom: "subpxconv81"
  top: "pxs81"
  reshape_param {
    pixelshuffler: 2
  }
}
layer {
  name: "relu81"
  type: "ReLU"
  bottom: "pxs81"
  top: "relu81"
}
layer {
  name: "subpxconv82"
  type: "Convolution"
  bottom: "relu81"
  top: "subpxconv82"
  convolution_param {
    num_output: 256
    pad: 1
    kernel_size: 3
    stride: 1
    weight_filler {
      type: "xavier"
    }
    bias_filler {
      type: "constant"
    }
  }
}
layer {
  name: "pxs82"
  type: "reshape"
  bottom: "subpxconv82"
  top: "pxs82"
  reshape_param {
    pixelshuffler: 2
  }
}
layer {
  name: "relu82"
  type: "ReLU"
  bottom: "pxs82"
  top: "relu82"
}
layer {
  name: "subpxconv83"
  type: "Convolution"
  bottom: "relu82"
  top: "subpxconv83"
  convolution_param {
    num_output: 256
    pad: 1
    kernel_size: 3
    stride: 1
    weight_filler {
      type: "xavier"
    }
    bias_filler {
      type: "constant"
    }
  }
}
layer {
  name: "pxs83"
  type: "reshape"
  bottom: "subpxconv83"
  top: "pxs83"
  reshape_param {
    pixelshuffler: 2
  }
}
layer {
  name: "relu83"
  type: "ReLU"
  bottom: "pxs83"
  top: "relu83"
}
layer {
  name: "subpxconv84"
  type: "Convolution"
  bottom: "relu83"
  top: "subpxconv84"
  convolution_param {
    num_output: 256
    pad: 1
    kernel_size: 3
    stride: 1
    weight_filler {
      type: "xavier"
    }
    bias_filler {
      type: "constant"
    }
  }
}
layer {
  name: "pxs84"
  type: "reshape"
  bottom: "subpxconv84"
  top: "pxs84"
  reshape_param {
    pixelshuffler: 2
  }
}
layer {
  name: "relu84"
  type: "ReLU"
  bottom: "pxs84"
  top: "relu84"
}
layer {
  name: "subpxconv85"
  type: "Convolution"
  bottom: "relu84"
  top: "subpxconv85"
  convolution_param {
    num_output: 256
    pad: 1
    kernel_size: 3
    stride: 1
    weight_filler {
      type: "xavier"
    }
    bias_filler {
      type: "constant"
    }
  }
}
layer {
  name: "pxs85"
  type: "reshape"
  bottom: "subpxconv85"
  top: "pxs85"
  reshape_param {
    pixelshuffler: 2
  }
}
layer {
  name: "relu85"
  type: "ReLU"
  bottom: "pxs85"
  top: "relu85"
}
layer {
  name: "subpxconv86"
  type: "Convolution"
  bottom: "relu85"
  top: "subpxconv86"
  convolution_param {
    num_output: 256
    pad: 1
    kernel_size: 3
    stride: 1
    weight_filler {
      type: "xavier"
    }
    bias_filler {
      type: "constant"
    }
  }
}
layer {
  name: "pxs86"
  type: "reshape"
  bottom: "subpxconv86"
  top: "pxs86"
  reshape_param {
    pixelshuffler: 2
  }
}
layer {
  name: "relu86"
  type: "ReLU"
  bottom: "pxs86"
  top: "relu86"
}
layer {
  name: "subpxconv87"
  type: "Convolution"
  bottom: "relu86"
  top: "subpxconv87"
  convolution_param {
    num_output: 256
    pad: 1
    kernel_size: 3
    stride: 1
    weight_filler {
      type: "xavier"
    }
    bias_filler {
      type: "constant"
    }
  }
}
layer {
  name: "pxs87"
  type: "reshape"
  bottom: "subpxconv87"
  top: "pxs87"
  reshape_param {
    pixelshuffler: 2
  }
}
layer {
  name: "relu87"
  type: "ReLU"
  bottom: "pxs87"
  top: "relu87"
}
layer {
  name: "subpxconv88"
  type: "Convolution"
  bottom: "relu87"
  top: "subpxconv88"
  convolution_param {
    num_output: 256
    pad: 1
    kernel_size: 3
    stride: 1
    weight_filler {
      type: "xavier"
    }
    bias_filler {
      type: "constant"
    }
  }
}
layer {
  name: "pxs88"
  type: "reshape"
  bottom: "subpxconv88"
  top: "pxs88"
  reshape_param {
    pixelshuffler: 2
  }
}
layer {
  name: "relu88"
  type: "ReLU"
  bottom: "pxs88"
  top: "relu88"
}
layer {
  name: "subpxconv89"
  type: "Convolution"
  bottom: "relu88"
  top: "subpxconv89"
  convolution_param {
    num_output: 256
    pad: 1
    kernel_size: 3
    stride: 1
    weight_filler {
      type: "xavier"
    }
    bias_filler {
      type: "constant"
    }
  }
}
layer {
  name: "pxs89"
  type: "reshape"
  bottom: "subpxconv89"
  top: "pxs89"
  reshape_param {
    pixelshuffler: 2
  }
}
layer {
  name: "relu89"
  type: "ReLU"
  bottom: "pxs89"
  top: "relu89"
}
layer {
  name: "subpxconv90"
  type: "Convolution"
  bottom: "relu89"
  top: "subpxconv90"
  convolution_param {
    num_output: 256
    pad: 1
    kernel_size: 3
    stride: 1
    weight_filler {
      type: "xavier"
    }
    bias_filler {
      type: "constant"
    }
  }
}
layer {
  name: "pxs90"
  type: "reshape"
  bottom: "subpxconv90"
  top: "pxs90"
  reshape_param {
    pixelshuffler: 2
  }
}
layer {
  name: "relu90"
  type: "ReLU"
  bottom: "pxs90"
  top: "relu90"
}
layer {
  name: "subpxconv91"
  type: "Convolution"
  bottom: "relu90"
  top: "subpxconv91"
  convolution_param {
    num_output: 256
    pad: 1
    kernel_size: 3
    stride: 1
    weight_filler {
      type: "xavier"
    }
    bias_filler {
      type: "constant"
    }
  }
}
layer {
  name: "pxs91"
  type: "reshape"
  bottom: "subpxconv91"
  top: "pxs91"
  reshape_param {
    pixelshuffler: 2
  }
}
layer {
  name: "relu91"
  type: "ReLU"
  bottom: "pxs91"
  top: "relu91"
}
layer {
  name: "subpxconv92"
  type: "Convolution"
  bottom: "relu91"
  top: "subpxconv92"
  convolution_param {
    num_output: 256
    pad: 1
    kernel_size: 3
    stride: 1
    weight_filler {
      type: "xavier"
    }
    bias_filler {
      type: "constant"
    }
  }
}
layer {
  name: "pxs92"
  type: "reshape"
  bottom: "subpxconv92"
  top: "pxs92"
  reshape_param {
    pixelshuffler: 2
  }
}
layer {
  name: "relu92"
  type: "ReLU"
  bottom: "pxs92"
  top: "relu92"
}
layer {
  name: "subpxconv93"
  type: "Convolution"
  bottom: "relu92"
  top: "subpxconv93"
  convolution_param {
    num_output: 256
    pad: 1
    kernel_size: 3
    stride: 1
    weight_filler {
      type: "xavier"
    }
    bias_filler {
      type: "constant"
    }
  }
}
layer {
  name: "pxs93"
  type: "reshape"
  bottom: "subpxconv93"
  top: "pxs93"
  reshape_param {
    pixelshuffler: 2
  }
}
layer {
  name: "relu93"
  type: "ReLU"
  bottom: "pxs93"
  top: "relu93"
}
layer {
  name: "subpxconv94"
  type: "Convolution"
  bottom: "relu93"
  top: "subpxconv94"
  convolution_param {
    num_output: 256
    pad: 1
    kernel_size: 3
    stride: 1
    weight_filler {
      type: "xavier"
    }
    bias_filler {
      type: "constant"
    }
  }
}
layer {
  name: "pxs94"
  type: "reshape"
  bottom: "subpxconv94"
  top: "pxs94"
  reshape_param {
    pixelshuffler: 2
  }
}
layer {
  name: "relu94"
  type: "ReLU"
  bottom: "pxs94"
  top: "relu94"
}
layer {
  name: "subpxconv95"
  type: "Convolution"
  bottom: "relu94"
  top: "subpxconv95"
  convolution_param {
    num_output: 256
    pad: 1
    kernel_size: 3
    stride: 1
    weight_filler {
      type: "xavier"
    }
    bias_filler {
      type: "constant"
    }
  }
}
layer {
  name: "pxs95"
  type: "reshape"
  bottom: "subpxconv95"
  top: "pxs95"
  reshape_param {
    pixelshuffler: 2
  }
}
layer {
  name: "relu95"
  type: "ReLU"
  bottom: "pxs95"
  top: "relu95"
}
layer {
  name: "subpxconv96"
  type: "Convolution"
  bottom: "relu95"
  top: "subpxconv96"
  convolution_param {
    num_output: 256
    pad: 1
    kernel_size: 3
    stride: 1
    weight_filler {
      type: "xavier"
    }
    bias_filler {
      type: "constant"
    }
  }
}
layer {
  name: "pxs96"
  type: "reshape"
  bottom: "subpxconv96"
  top: "pxs96"
  reshape_param {
    pixelshuffler: 2
  }
}
layer {
  name: "relu96"
  type: "ReLU"
  bottom: "pxs96"
  top: "relu96"
}
layer {
  name: "subpxconv97"
  type: "Convolution"
  bottom: "relu96"
  top: "subpxconv97"
  convolution_param {
    num_output: 256
    pad: 1
    kernel_size: 3
    stride: 1
    weight_filler {
      type: "xavier"
    }
    bias_filler {
      type: "constant"
    }
  }
}
layer {
  name: "pxs97"
  type: "reshape"
  bottom: "subpxconv97"
  top: "pxs97"
  reshape_param {
    pixelshuffler: 2
  }
}
layer {
  name: "relu97"
  type: "ReLU"
  bottom: "pxs97"
  top: "relu97"
}
layer {
  name: "subpxconv98"
  type: "Convolution"
  bottom: "relu97"
  top: "subpxconv98"
  convolution_param {
    num_output: 256
    pad: 1
    kernel_size: 3
    stride: 1
    weight_filler {
      type: "xavier"
    }
    bias_filler {
      type: "constant"
    }
  }
}
layer {
  name: "pxs98"
  type: "reshape"
  bottom: "subpxconv98"
  top: "pxs98"
  reshape_param {
    pixelshuffler: 2
  }
}
layer {
  name: "relu98"
  type: "ReLU"
  bottom: "pxs98"
  top: "relu98"
}
layer {
  name: "subpxconv99"
  type: "Convolution"
  bottom: "relu98"
  top: "subpxconv99"
  convolution_param {
    num_output: 256
    pad: 1
    kernel_size: 3
    stride: 1
    weight_filler {
      type: "xavier"
    }
    bias_filler {
      type: "constant"
    }
  }
}
layer {
  name: "pxs99"
  type: "reshape"
  bottom: "subpxconv99"
  top: "pxs99"
  reshape_param {
    pixelshuffler: 2
  }
}
layer {
  name: "relu99"
  type: "ReLU"
  bottom: "pxs99"
  top: "relu99"
}
layer {
  name: "subpxconv100"
  type: "Convolution"
  bottom: "relu99"
  top: "subpxconv100"
  convolution_param {
    num_output: 256
    pad: 1
    kernel_size: 3
    stride: 1
    weight_filler {
      type: "xavier"
    }
    bias_filler {
      type: "constant"
    }
  }
}
layer {
  name: "pxs100"
  type: "reshape"
  bottom: "subpxconv100"
  top: "pxs100"
  reshape_param {
    pixelshuffler: 2
  }
}
layer {
  name: "relu100"
  type: "ReLU"
  bottom: "pxs100"
  top: "relu100"
}
layer {
  name: "subpxconv101"
  type: "Convolution"
  bottom: "relu100"
  top: "subpxconv101"
  convolution_param {
    num_output: 256
    pad: 1
    kernel_size: 3
    stride: 1
    weight_filler {
      type: "xavier"
    }
    bias_filler {
      type: "constant"
    }
  }
}
layer {
  name: "pxs101"
  type: "reshape"
  bottom: "subpxconv101"
  top: "pxs101"
  reshape_param {
    pixelshuffler: 2
  }
}
layer {
  name: "relu101"
  type: "ReLU"
  bottom: "pxs101"
  top: "relu101"
}
layer {
  name: "subpxconv102"
  type: "Convolution"
  bottom: "relu101"
  top: "subpxconv102"
  convolution_param {
    num_output: 256
    pad: 1
    kernel_size: 3
    stride: 1
    weight_filler {
      type: "xavier"
    }
    bias_filler {
      type: "constant"
    }
  }
}
layer {
  name: "pxs102"
  type: "reshape"
  bottom: "subpxconv102"
  top: "pxs102"
  reshape_param {
    pixelshuffler: 2
  }
}
layer {
  name: "relu102"
  type: "ReLU"
  bottom: "pxs102"
  top: "relu102"
}
layer {
  name: "subpxconv103"
  type: "Convolution"
  bottom: "relu102"
  top: "subpxconv103"
  convolution_param {
    num_output: 256
    pad: 1
    kernel_size: 3
    stride: 1
    weight_filler {
      type: "xavier"
    }
    bias_filler {
      type: "constant"
    }
  }
}
layer {
  name: "pxs103"
  type: "reshape"
  bottom: "subpxconv103"
  top: "pxs103"
  reshape_param {
    pixelshuffler: 2
  }
}
layer {
  name: "relu103"
  type: "ReLU"
  bottom: "pxs103"
  top: "relu103"
}
layer {
  name: "subpxconv104"
  type: "Convolution"
  bottom: "relu103"
  top: "subpxconv104"
  convolution_param {
    num_output: 256
    pad: 1
    kernel_size: 3
    stride: 1
    weight_filler {
      type: "xavier"
    }
    bias_filler {
      type: "constant"
    }
  }
}
layer {
  name: "pxs104"
  type: "reshape"
  bottom: "subpxconv104"
  top: "pxs104"
  reshape_param {
    pixelshuffler: 2
  }
}
layer {
  name: "relu104"
  type: "ReLU"
  bottom: "pxs104"
  top: "relu104"
}
layer {
  name: "subpxconv105"
  type: "Convolution"
  bottom: "relu104"
  top: "subpxconv105"
  convolution_param {
    num_output: 256
    pad: 1
    kernel_size: 3
    stride: 1
    weight_filler {
      type: "xavier"
    }
    bias_filler {
      type: "constant"
    }
  }
}
layer {
  name: "pxs105"
  type: "reshape"
  bottom: "subpxconv105"
  top: "pxs105"
  reshape_param {
    pixelshuffler: 2
  }
}
layer {
  name: "relu105"
  type: "ReLU"
  bottom: "pxs105"
  top: "relu105"
}
layer {
  name: "subpxconv106"
  type: "Convolution"
  bottom: "relu105"
  top: "subpxconv106"
  convolution_param {
    num_output: 256
    pad: 1
    kernel_size: 3
    stride: 1
    weight_filler {
      type: "xavier"
    }
    bias_filler {
      type: "constant"
    }
  }
}
layer {
  name: "pxs106"
  type: "reshape"
  bottom: "subpxconv106"
  top: "pxs106"
  reshape_param {
    pixelshuffler: 2
  }
}
layer {
  name: "relu106"
  type: "ReLU"
  bottom: "pxs106"
  top: "relu106"
}
layer {
  name: "subpxconv107"
  type: "Convolution"
  bottom: "relu106"
  top: "subpxconv107"
  convolution_param {
    num_output: 256
    pad: 1
    kernel_size: 3
    stride: 1
    weight_filler {
      type: "xavier"
    }
    bias_filler {
      type: "constant"
    }
  }
}
layer {
  name: "pxs107"
  type: "reshape"
  bottom: "subpxconv107"
  top: "pxs107"
  reshape_param {
    pixelshuffler: 2
  }
}
layer {
  name: "relu107"
  type: "ReLU"
  bottom: "pxs107"
  top: "relu107"
}
layer {
  name: "subpxconv108"
  type: "Convolution"
  bottom: "relu107"
  top: "subpxconv108"
  convolution_param {
    num_output: 256
    pad: 1
    kernel_size: 3
    stride: 1
    weight_filler {
      type: "xavier"
    }
    bias_filler {
      type: "constant"
    }
  }
}
layer {
  name: "pxs108"
  type: "reshape"
  bottom: "subpxconv108"
  top: "pxs108"
  reshape_param {
    pixelshuffler: 2
  }
}
layer {
  name: "relu108"
  type: "ReLU"
  bottom: "pxs108"
  top: "relu108"
}
layer {
  name: "subpxconv109"
  type: "Convolution"
  bottom: "relu108"
  top: "subpxconv109"
  convolution_param {
    num_output: 256
    pad: 1
    kernel_size: 3
    stride: 1
    weight_filler {
      type: "xavier"
    }
    bias_filler {
      type: "constant"
    }
  }
}
layer {
  name: "pxs109"
  type: "reshape"
  bottom: "subpxconv109"
  top: "pxs109"
  reshape_param {
    pixelshuffler: 2
  }
}
layer {
  name: "relu109"
  type: "ReLU"
  bottom: "pxs109"
  top: "relu109"
}
layer {
  name: "subpxconv110"
  type: "Convolution"
  bottom: "relu109"
  top: "subpxconv110"
  convolution_param {
    num_output: 256
    pad: 1
    kernel_size: 3
    stride: 1
    weight_filler {
      type: "xavier"
    }
    bias_filler {
      type: "constant"
    }
  }
}
layer {
  name: "pxs110"
  type: "reshape"
  bottom: "subpxconv110"
  top: "pxs110"
  reshape_param {
    pixelshuffler: 2
  }
}
layer {
  name: "relu110"
  type: "ReLU"
  bottom: "pxs110"
  top: "relu110"
}
layer {
  name: "subpxconv111"
  type: "Convolution"
  bottom: "relu110"
  top: "subpxconv111"
  convolution_param {
    num_output: 256
    pad: 1
    kernel_size: 3
    stride: 1
    weight_filler {
      type: "xavier"
    }
    bias_filler {
      type: "constant"
    }
  }
}
layer {
  name: "pxs111"
  type: "reshape"
  bottom: "subpxconv111"
  top: "pxs111"
  reshape_param {
    pixelshuffler: 2
  }
}
layer {
  name: "relu111"
  type: "ReLU"
  bottom: "pxs111"
  top: "relu111"
}
layer {
  name: "subpxconv112"
  type: "Convolution"
  bottom: "relu111"
  top: "subpxconv112"
  convolution_param {
    num_output: 256
    pad: 1
    kernel_size: 3
    stride: 1
    weight_filler {
      type: "xavier"
    }
    bias_filler {
      type: "constant"
    }
  }
}
layer {
  name: "pxs112"
  type: "reshape"
  bottom: "subpxconv112"
  top: "pxs112"
  reshape_param {
    pixelshuffler: 2
  }
}
layer {
  name: "relu112"
  type: "ReLU"
  bottom: "pxs112"
  top: "relu112"
}
layer {
  name: "subpxconv113"
  type: "Convolution"
  bottom: "relu112"
  top: "subpxconv113"
  convolution_param {
    num_output: 256
    pad: 1
    kernel_size: 3
    stride: 1
    weight_filler {
      type: "xavier"
    }
    bias_filler {
      type: "constant"
    }
  }
}
layer {
  name: "pxs113"
  type: "reshape"
  bottom: "subpxconv113"
  top: "pxs113"
  reshape_param {
    pixelshuffler: 2
  }
}
layer {
  name: "relu113"
  type: "ReLU"
  bottom: "pxs113"
  top: "relu113"
}
layer {
  name: "subpxconv114"
  type: "Convolution"
  bottom: "relu113"
  top: "subpxconv114"
  convolution_param {
    num_output: 256
    pad: 1
    kernel_size: 3
    stride: 1
    weight_filler {
      type: "xavier"
    }
    bias_filler {
      type: "constant"
    }
  }
}
layer {
  name: "pxs114"
  type: "reshape"
  bottom: "subpxconv114"
  top: "pxs114"
  reshape_param {
    pixelshuffler: 2
  }
}
layer {
  name: "relu114"
  type: "ReLU"
  bottom: "pxs114"
  top: "relu114"
}
layer {
  name: "subpxconv115"
  type: "Convolution"
  bottom: "relu114"
  top: "subpxconv115"
  convolution_param {
    num_output: 256
    pad: 1
    kernel_size: 3
    stride: 1
    weight_filler {
      type: "xavier"
    }
    bias_filler {
      type: "constant"
    }
  }
}
layer {
  name: "pxs115"
  type: "reshape"
  bottom: "subpxconv115"
  top: "pxs115"
  reshape_param {
    pixelshuffler: 2
  }
}
layer {
  name: "relu115"
  type: "ReLU"
  bottom: "pxs115"
  top: "relu115"
}
layer {
  name: "subpxconv116"
  type: "Convolution"
  bottom: "relu115"
  top: "subpxconv116"
  convolution_param {
    num_output: 256
    pad: 1
    kernel_size: 3
    stride: 1
    weight_filler {
      type: "xavier"
    }
    bias_filler {
      type: "constant"
    }
  }
}
layer {
  name: "pxs116"
  type: "reshape"
  bottom: "subpxconv116"
  top: "pxs116"
  reshape_param {
    pixelshuffler: 2
  }
}
layer {
  name: "relu116"
  type: "ReLU"
  bottom: "pxs116"
  top: "relu116"
}
layer {
  name: "subpxconv117"
  type: "Convolution"
  bottom: "relu116"
  top: "subpxconv117"
  convolution_param {
    num_output: 256
    pad: 1
    kernel_size: 3
    stride: 1
    weight_filler {
      type: "xavier"
    }
    bias_filler {
      type: "constant"
    }
  }
}
layer {
  name: "pxs117"
  type: "reshape"
  bottom: "subpxconv117"
  top: "pxs117"
  reshape_param {
    pixelshuffler: 2
  }
}
layer {
  name: "relu117"
  type: "ReLU"
  bottom: "pxs117"
  top: "relu117"
}
layer {
  name: "subpxconv118"
  type: "Convolution"
  bottom: "relu117"
  top: "subpxconv118"
  convolution_param {
    num_output: 256
    pad: 1
    kernel_size: 3
    stride: 1
    weight_filler {
      type: "xavier"
    }
    bias_filler {
      type: "constant"
    }
  }
}
layer {
  name: "pxs118"
  type: "reshape"
  bottom: "subpxconv118"
  top: "pxs118"
  reshape_param {
    pixelshuffler: 2
  }
}
layer {
  name: "relu118"
  type: "ReLU"
  bottom: "pxs118"
  top: "relu118"
}
layer {
  name: "subpxconv119"
  type: "Convolution"
  bottom: "relu118"
  top: "subpxconv119"
  convolution_param {
    num_output: 256
    pad: 1
    kernel_size: 3
    stride: 1
    weight_filler {
      type: "xavier"
    }
    bias_filler {
      type: "constant"
    }
  }
}
layer {
  name: "pxs119"
  type: "reshape"
  bottom: "subpxconv119"
  top: "pxs119"
  reshape_param {
    pixelshuffler: 2
  }
}
layer {
  name: "relu119"
  type: "ReLU"
  bottom: "pxs119"
  top: "relu119"
}
layer {
  name: "subpxconv120"
  type: "Convolution"
  bottom: "relu119"
  top: "subpxconv120"
  convolution_param {
    num_output: 256
    pad: 1
    kernel_size: 3
    stride: 1
    weight_filler {
      type: "xavier"
    }
    bias_filler {
      type: "constant"
    }
  }
}
layer {
  name: "pxs120"
  type: "reshape"
  bottom: "subpxconv120"
  top: "pxs120"
  reshape_param {
    pixelshuffler: 2
  }
}
layer {
  name: "relu120"
  type: "ReLU"
  bottom: "pxs120"
  top: "relu120"
}
layer {
  name: "subpxconv121"
  type: "Convolution"
  bottom: "relu120"
  top: "subpxconv121"
  convolution_param {
    num_output: 256
    pad: 1
    kernel_size: 3
    stride: 1
    weight_filler {
      type: "xavier"
    }
    bias_filler {
      type: "constant"
    }
  }
}
layer {
  name: "pxs121"
  type: "reshape"
  bottom: "subpxconv121"
  top: "pxs121"
  reshape_param {
    pixelshuffler: 2
  }
}
layer {
  name: "relu121"
  type: "ReLU"
  bottom: "pxs121"
  top: "relu121"
}
layer {
  name: "subpxconv122"
  type: "Convolution"
  bottom: "relu121"
  top: "subpxconv122"
  convolution_param {
    num_output: 256
    pad: 1
    kernel_size: 3
    stride: 1
    weight_filler {
      type: "xavier"
    }
    bias_filler {
      type: "constant"
    }
  }
}
layer {
  name: "pxs122"
  type: "reshape"
  bottom: "subpxconv122"
  top: "pxs122"
  reshape_param {
    pixelshuffler: 2
  }
}
layer {
  name: "relu122"
  type: "ReLU"
  bottom: "pxs122"
  top: "relu122"
}
layer {
  name: "subpxconv123"
  type: "Convolution"
  bottom: "relu122"
  top: "subpxconv123"
  convolution_param {
    num_output: 256
    pad: 1
    kernel_size: 3
    stride: 1
    weight_filler {
      type: "xavier"
    }
    bias_filler {
      type: "constant"
    }
  }
}
layer {
  name: "pxs123"
  type: "reshape"
  bottom: "subpxconv123"
  top: "pxs123"
  reshape_param {
    pixelshuffler: 2
  }
}
layer {
  name: "relu123"
  type: "ReLU"
  bottom: "pxs123"
  top: "relu123"
}
layer {
  name: "subpxconv124"
  type: "Convolution"
  bottom: "relu123"
  top: "subpxconv124"
  convolution_param {
    num_output: 256
    pad: 1
    kernel_size: 3
    stride: 1
    weight_filler {
      type: "xavier"
    }
    bias_filler {
      type: "constant"
    }
  }
}
layer {
  name: "pxs124"
  type: "reshape"
  bottom: "subpxconv124"
  top: "pxs124"
  reshape_param {
    pixelshuffler: 2
  }
}
layer {
  name: "relu124"
  type: "ReLU"
  bottom: "pxs124"
  top: "relu124"
}
layer {
  name: "subpxconv125"
  type: "Convolution"
  bottom: "relu124"
  top: "subpxconv125"
  convolution_param {
    num_output: 256
    pad: 1
    kernel_size: 3
    stride: 1
    weight_filler {
      type: "xavier"
    }
    bias_filler {
      type: "constant"
    }
  }
}
layer {
  name: "pxs125"
  type: "reshape"
  bottom: "subpxconv125"
  top: "pxs125"
  reshape_param {
    pixelshuffler: 2
  }
}
layer {
  name: "relu125"
  type: "ReLU"
  bottom: "pxs125"
  top: "relu125"
}
layer {
  name: "subpxconv126"
  type: "Convolution"
  bottom: "relu125"
  top: "subpxconv126"
  convolution_param {
    num_output: 256
    pad: 1
    kernel_size: 3
    stride: 1
    weight_filler {
      type: "xavier"
    }
    bias_filler {
      type: "constant"
    }
  }
}
layer {
  name: "pxs126"
  type: "reshape"
  bottom: "subpxconv126"
  top: "pxs126"
  reshape_param {
    pixelshuffler: 2
  }
}
layer {
  name: "relu126"
  type: "ReLU"
  bottom: "pxs126"
  top: "relu126"
}
layer {
  name: "subpxconv127"
  type: "Convolution"
  bottom: "relu126"
  top: "subpxconv127"
  convolution_param {
    num_output: 256
    pad: 1
    kernel_size: 3
    stride: 1
    weight_filler {
      type: "xavier"
    }
    bias_filler {
      type: "constant"
    }
  }
}
layer {
  name: "pxs127"
  type: "reshape"
  bottom: "subpxconv127"
  top: "pxs127"
  reshape_param {
    pixelshuffler: 2
  }
}
layer {
  name: "relu127"
  type: "ReLU"
  bottom: "pxs127"
  top: "relu127"
}
layer {
  name: "subpxconv128"
  type: "Convolution"
  bottom: "relu127"
  top: "subpxconv128"
  convolution_param {
    num_output: 256
    pad: 1
    kernel_size: 3
    stride: 1
    weight_filler {
      type: "xavier"
    }
    bias_filler {
      type: "constant"
    }
  }
}
layer {
  name: "pxs128"
  type: "reshape"
  bottom: "subpxconv128"
  top: "pxs128"
  reshape_param {
    pixelshuffler: 2
  }
}
layer {
  name: "relu128"
  type: "ReLU"
  bottom: "pxs128"
  top: "relu128"
}
layer {
  name: "subpxconv129"
  type: "Convolution"
  bottom: "relu128"
  top: "subpxconv129"
  convolution_param {
    num_output: 256
    pad: 1
    kernel_size: 3
    stride: 1
    weight_filler {
      type: "xavier"
    }
    bias_filler {
      type: "constant"
    }
  }
}
layer {
  name: "pxs129"
  type: "reshape"
  bottom: "subpxconv129"
  top: "pxs129"
  reshape_param {
    pixelshuffler: 2
  }
}
layer {
  name: "relu129"
  type: "ReLU"
  bottom: "pxs129"
  top: "relu129"
}
layer {
  name: "subpxconv130"
  type: "Convolution"
  bottom: "relu129"
  top: "subpxconv130"
  convolution_param {
    num_output: 256
    pad: 1
    kernel_size: 3
    stride: 1
    weight_filler {
      type: "xavier"
    }
    bias_filler {
      type: "constant"
    }
  }
}
layer {
  name: "pxs130"
  type: "reshape"
  bottom: "subpxconv130"
  top: "pxs130"
  reshape_param {
    pixelshuffler: 2
  }
}
layer {
  name: "relu130"
  type: "ReLU"
  bottom: "pxs130"
  top: "relu130"
}
layer {
  name: "subpxconv131"
  type: "Convolution"
  bottom: "relu130"
  top: "subpxconv131"
  convolution_param {
    num_output: 256
    pad: 1
    kernel_size: 3
    stride: 1
    weight_filler {
      type: "xavier"
    }
    bias_filler {
      type: "constant"
    }
  }
}
layer {
  name: "pxs131"
  type: "reshape"
  bottom: "subpxconv131"
  top: "pxs131"
  reshape_param {
    pixelshuffler: 2
  }
}
layer {
  name: "relu131"
  type: "ReLU"
  bottom: "pxs131"
  top: "relu131"
}
layer {
  name: "subpxconv132"
  type: "Convolution"
  bottom: "relu131"
  top: "subpxconv132"
  convolution_param {
    num_output: 256
    pad: 1
    kernel_size: 3
    stride: 1
    weight_filler {
      type: "xavier"
    }
    bias_filler {
      type: "constant"
    }
  }
}
layer {
  name: "pxs132"
  type: "reshape"
  bottom: "subpxconv132"
  top: "pxs132"
  reshape_param {
    pixelshuffler: 2
  }
}
layer {
  name: "relu132"
  type: "ReLU"
  bottom: "pxs132"
  top: "relu132"
}
layer {
  name: "subpxconv133"
  type: "Convolution"
  bottom: "relu132"
  top: "subpxconv133"
  convolution_param {
    num_output: 256
    pad: 1
    kernel_size: 3
    stride: 1
    weight_filler {
      type: "xavier"
    }
    bias_filler {
      type: "constant"
    }
  }
}
layer {
  name: "pxs133"
  type: "reshape"
  bottom: "subpxconv133"
  top: "pxs133"
  reshape_param {
    pixelshuffler: 2
  }
}
layer {
  name: "relu133"
  type: "ReLU"
  bottom: "pxs133"
  top: "relu133"
}
layer {
  name: "subpxconv134"
  type: "Convolution"
  bottom: "relu133"
  top: "subpxconv134"
  convolution_param {
    num_output: 256
    pad: 1
    kernel_size: 3
    stride: 1
    weight_filler {
      type: "xavier"
    }
    bias_filler {
      type: "constant"
    }
  }
}
layer {
  name: "pxs134"
  type: "reshape"
  bottom: "subpxconv134"
  top: "pxs134"
  reshape_param {
    pixelshuffler: 2
  }
}
layer {
  name: "relu134"
  type: "ReLU"
  bottom: "pxs134"
  top: "relu134"
}
layer {
  name: "subpxconv135"
  type: "Convolution"
  bottom: "relu134"
  top: "subpxconv135"
  convolution_param {
    num_output: 256
    pad: 1
    kernel_size: 3
    stride: 1
    weight_filler {
      type: "xavier"
    }
    bias_filler {
      type: "constant"
    }
  }
}
layer {
  name: "pxs135"
  type: "reshape"
  bottom: "subpxconv135"
  top: "pxs135"
  reshape_param {
    pixelshuffler: 2
  }
}
layer {
  name: "relu135"
  type: "ReLU"
  bottom: "pxs135"
  top: "relu135"
}
layer {
  name: "subpxconv136"
  type: "Convolution"
  bottom: "relu135"
  top: "subpxconv136"
  convolution_param {
    num_output: 256
    pad: 1
    kernel_size: 3
    stride: 1
    weight_filler {
      type: "xavier"
    }
    bias_filler {
      type: "constant"
    }
  }
}
layer {
  name: "pxs136"
  type: "reshape"
  bottom: "subpxconv136"
  top: "pxs136"
  reshape_param {
    pixelshuffler: 2
  }
}
layer {
  name: "relu136"
  type: "ReLU"
  bottom: "pxs136"
  top: "relu136"
}
layer {
  name: "subpxconv137"
  type: "Convolution"
  bottom: "relu136"
  top: "subpxconv137"
  convolution_param {
    num_output: 256
    pad: 1
    kernel_size: 3
    stride: 1
    weight_filler {
      type: "xavier"
    }
    bias_filler {
      type: "constant"
    }
  }
}
layer {
  name: "pxs137"
  type: "reshape"
  bottom: "subpxconv137"
  top: "pxs137"
  reshape_param {
    pixelshuffler: 2
  }
}
layer {
  name: "relu137"
  type: "ReLU"
  bottom: "pxs137"
  top: "relu137"
}
layer {
  name: "subpxconv138"
  type: "Convolution"
  bottom: "relu137"
  top: "subpxconv138"
  convolution_param {
    num_output: 256
    pad: 1
    kernel_size: 3
    stride: 1
    weight_filler {
      type: "xavier"
    }
    bias_filler {
      type: "constant"
    }
  }
}
layer {
  name: "pxs138"
  type: "reshape"
  bottom: "subpxconv138"
  top: "pxs138"
  reshape_param {
    pixelshuffler: 2
  }
}
layer {
  name: "relu138"
  type: "ReLU"
  bottom: "pxs138"
  top: "relu138"
}
layer {
  name: "subpxconv139"
  type: "Convolution"
  bottom: "relu138"
  top: "subpxconv139"
  convolution_param {
    num_output: 256
    pad: 1
    kernel_size: 3
    stride: 1
    weight_filler {
      type: "xavier"
    }
    bias_filler {
      type: "constant"
    }
  }
}
layer {
  name: "pxs139"
  type: "reshape"
  bottom: "subpxconv139"
  top: "pxs139"
  reshape_param {
    pixelshuffler: 2
  }
}
layer {
  name: "relu139"
  type: "ReLU"
  bottom: "pxs139"
  top: "relu139"
}
layer {
  name: "subpxconv140"
  type: "Convolution"
  bottom: "relu139"
  top: "subpxconv140"
  convolution_param {
    num_output: 256
    pad: 1
    kernel_size: 3
    stride: 1
    weight_filler {
      type: "xavier"
    }
    bias_filler {
      type: "constant"
    }
  }
}
layer {
  name: "pxs140"
  type: "reshape"
  bottom: "subpxconv140"
  top: "pxs140"
  reshape_param {
    pixelshuffler: 2
  }
}
layer {
  name: "relu140"
  type: "ReLU"
  bottom: "pxs140"
  top: "relu140"
}
layer {
  name: "subpxconv141"
  type: "Convolution"
  bottom: "relu140"
  top: "subpxconv141"
  convolution_param {
    num_output: 256
    pad: 1
    kernel_size: 3
    stride: 1
    weight_filler {
      type: "xavier"
    }
    bias_filler {
      type: "constant"
    }
  }
}
layer {
  name: "pxs141"
  type: "reshape"
  bottom: "subpxconv141"
  top: "pxs141"
  reshape_param {
    pixelshuffler: 2
  }
}
layer {
  name: "relu141"
  type: "ReLU"
  bottom: "pxs141"
  top: "relu141"
}
layer {
  name: "subpxconv142"
  type: "Convolution"
  bottom: "relu141"
  top: "subpxconv142"
  convolution_param {
    num_output: 256
    pad: 1
    kernel_size: 3
    stride: 1
    weight_filler {
      type: "xavier"
    }
    bias_filler {
      type: "constant"
    }
  }
}
layer {
  name: "pxs142"
  type: "reshape"
  bottom: "subpxconv142"
  top: "pxs142"
  reshape_param {
    pixelshuffler: 2
  }
}
layer {
  name: "relu142"
  type: "ReLU"
  bottom: "pxs142"
  top: "relu142"
}
layer {
  name: "subpxconv143"
  type: "Convolution"
  bottom: "relu142"
  top: "subpxconv143"
  convolution_param {
    num_output: 256
    pad: 1
    kernel_size: 3
    stride: 1
    weight_filler {
      type: "xavier"
    }
    bias_filler {
      type: "constant"
    }
  }
}
layer {
  name: "pxs143"
  type: "reshape"
  bottom: "subpxconv143"
  top: "pxs143"
  reshape_param {
    pixelshuffler: 2
  }
}
layer {
  name: "relu143"
  type: "ReLU"
  bottom: "pxs143"
  top: "relu143"
}
layer {
  name: "subpxconv144"
  type: "Convolution"
  bottom: "relu143"
  top: "subpxconv144"
  convolution_param {
    num_output: 256
    pad: 1
    kernel_size: 3
    stride: 1
    weight_filler {
      type: "xavier"
    }
    bias_filler {
      type: "constant"
    }
  }
}
layer {
  name: "pxs144"
  type: "reshape"
  bottom: "subpxconv144"
  top: "pxs144"
  reshape_param {
    pixelshuffler: 2
  }
}
layer {
  name: "relu144"
  type: "ReLU"
  bottom: "pxs144"
  top: "relu144"
}
layer {
  name: "subpxconv145"
  type: "Convolution"
  bottom: "relu144"
  top: "subpxconv145"
  convolution_param {
    num_output: 256
    pad: 1
    kernel_size: 3
    stride: 1
    weight_filler {
      type: "xavier"
    }
    bias_filler {
      type: "constant"
    }
  }
}
layer {
  name: "pxs145"
  type: "reshape"
  bottom: "subpxconv145"
  top: "pxs145"
  reshape_param {
    pixelshuffler: 2
  }
}
layer {
  name: "relu145"
  type: "ReLU"
  bottom: "pxs145"
  top: "relu145"
}
layer {
  name: "subpxconv146"
  type: "Convolution"
  bottom: "relu145"
  top: "subpxconv146"
  convolution_param {
    num_output: 256
    pad: 1
    kernel_size: 3
    stride: 1
    weight_filler {
      type: "xavier"
    }
    bias_filler {
      type: "constant"
    }
  }
}
layer {
  name: "pxs146"
  type: "reshape"
  bottom: "subpxconv146"
  top: "pxs146"
  reshape_param {
    pixelshuffler: 2
  }
}
layer {
  name: "relu146"
  type: "ReLU"
  bottom: "pxs146"
  top: "relu146"
}
layer {
  name: "subpxconv147"
  type: "Convolution"
  bottom: "relu146"
  top: "subpxconv147"
  convolution_param {
    num_output: 256
    pad: 1
    kernel_size: 3
    stride: 1
    weight_filler {
      type: "xavier"
    }
    bias_filler {
      type: "constant"
    }
  }
}
layer {
  name: "pxs147"
  type: "reshape"
  bottom: "subpxconv147"
  top: "pxs147"
  reshape_param {
    pixelshuffler: 2
  }
}
layer {
  name: "relu147"
  type: "ReLU"
  bottom: "pxs147"
  top: "relu147"
}
layer {
  name: "subpxconv148"
  type: "Convolution"
  bottom: "relu147"
  top: "subpxconv148"
  convolution_param {
    num_output: 256
    pad: 1
    kernel_size: 3
    stride: 1
    weight_filler {
      type: "xavier"
    }
    bias_filler {
      type: "constant"
    }
  }
}
layer {
  name: "pxs148"
  type: "reshape"
  bottom: "subpxconv148"
  top: "pxs148"
  reshape_param {
    pixelshuffler: 2
  }
}
layer {
  name: "relu148"
  type: "ReLU"
  bottom: "pxs148"
  top: "relu148"
}
layer {
  name: "subpxconv149"
  type: "Convolution"
  bottom: "relu148"
  top: "subpxconv149"
  convolution_param {
    num_output: 256
    pad: 1
    kernel_size: 3
    stride: 1
    weight_filler {
      type: "xavier"
    }
    bias_filler {
      type: "constant"
    }
  }
}
layer {
  name: "pxs149"
  type: "reshape"
  bottom: "subpxconv149"
  top: "pxs149"
  reshape_param {
    pixelshuffler: 2
  }
}
layer {
  name: "relu149"
  type: "ReLU"
  bottom: "pxs149"
  top: "relu149"
}
layer {
  name: "subpxconv150"
  type: "Convolution"
  bottom: "relu149"
  top: "subpxconv150"
  convolution_param {
    num_output: 256
    pad: 1
    kernel_size: 3
    stride: 1
    weight_filler {
      type: "xavier"
    }
    bias_filler {
      type: "constant"
    }
  }
}
layer {
  name: "pxs150"
  type: "reshape"
  bottom: "subpxconv150"
  top: "pxs150"
  reshape_param {
    pixelshuffler: 2
  }
}
layer {
  name: "relu150"
  type: "ReLU"
  bottom: "pxs150"
  top: "relu150"
}
layer {
  name: "subpxconv151"
  type: "Convolution"
  bottom: "relu150"
  top: "subpxconv151"
  convolution_param {
    num_output: 256
    pad: 1
    kernel_size: 3
    stride: 1
    weight_filler {
      type: "xavier"
    }
    bias_filler {
      type: "constant"
    }
  }
}
layer {
  name: "pxs151"
  type: "reshape"
  bottom: "subpxconv151"
  top: "pxs151"
  reshape_param {
    pixelshuffler: 2
  }
}
layer {
  name: "relu151"
  type: "ReLU"
  bottom: "pxs151"
  top: "relu151"
}
layer {
  name: "subpxconv152"
  type: "Convolution"
  bottom: "relu151"
  top: "subpxconv152"
  convolution_param {
    num_output: 256
    pad: 1
    kernel_size: 3
    stride: 1
    weight_filler {
      type: "xavier"
    }
    bias_filler {
      type: "constant"
    }
  }
}
layer {
  name: "pxs152"
  type: "reshape"
  bottom: "subpxconv152"
  top: "pxs152"
  reshape_param {
    pixelshuffler: 2
  }
}
layer {
  name: "relu152"
  type: "ReLU"
  bottom: "pxs152"
  top: "relu152"
}
layer {
  name: "subpxconv153"
  type: "Convolution"
  bottom: "relu152"
  top: "subpxconv153"
  convolution_param {
    num_output: 256
    pad: 1
    kernel_size: 3
    stride: 1
    weight_filler {
      type: "xavier"
    }
    bias_filler {
      type: "constant"
    }
  }
}
layer {
  name: "pxs153"
  type: "reshape"
  bottom: "subpxconv153"
  top: "pxs153"
  reshape_param {
    pixelshuffler: 2
  }
}
layer {
  name: "relu153"
  type: "ReLU"
  bottom: "pxs153"
  top: "relu153"
}
layer {
  name: "subpxconv154"
  type: "Convolution"
  bottom: "relu153"
  top: "subpxconv154"
  convolution_param {
    num_output: 256
    pad: 1
    kernel_size: 3
    stride: 1
    weight_filler {
      type: "xavier"
    }
    bias_filler {
      type: "constant"
    }
  }
}
layer {
  name: "pxs154"
  type: "reshape"
  bottom: "subpxconv154"
  top: "pxs154"
  reshape_param {
    pixelshuffler: 2
  }
}
layer {
  name: "relu154"
  type: "ReLU"
  bottom: "pxs154"
  top: "relu154"
}
layer {
  name: "subpxconv155"
  type: "Convolution"
  bottom: "relu154"
  top: "subpxconv155"
  convolution_param {
    num_output: 256
    pad: 1
    kernel_size: 3
    stride: 1
    weight_filler {
      type: "xavier"
    }
    bias_filler {
      type: "constant"
    }
  }
}
layer {
  name: "pxs155"
  type: "reshape"
  bottom: "subpxconv155"
  top: "pxs155"
  reshape_param {
    pixelshuffler: 2
  }
}
layer {
  name: "relu155"
  type: "ReLU"
  bottom: "pxs155"
  top: "relu155"
}
layer {
  name: "subpxconv156"
  type: "Convolution"
  bottom: "relu155"
  top: "subpxconv156"
  convolution_param {
    num_output: 256
    pad: 1
    kernel_size: 3
    stride: 1
    weight_filler {
      type: "xavier"
    }
    bias_filler {
      type: "constant"
    }
  }
}
layer {
  name: "pxs156"
  type: "reshape"
  bottom: "subpxconv156"
  top: "pxs156"
  reshape_param {
    pixelshuffler: 2
  }
}
layer {
  name: "relu156"
  type: "ReLU"
  bottom: "pxs156"
  top: "relu156"
}
layer {
  name: "subpxconv157"
  type: "Convolution"
  bottom: "relu156"
  top: "subpxconv157"
  convolution_param {
    num_output: 256
    pad: 1
    kernel_size: 3
    stride: 1
    weight_filler {
      type: "xavier"
    }
    bias_filler {
      type: "constant"
    }
  }
}
layer {
  name: "pxs157"
  type: "reshape"
  bottom: "subpxconv157"
  top: "pxs157"
  reshape_param {
    pixelshuffler: 2
  }
}
layer {
  name: "relu157"
  type: "ReLU"
  bottom: "pxs157"
  top: "relu157"
}
layer {
  name: "subpxconv158"
  type: "Convolution"
  bottom: "relu157"
  top: "subpxconv158"
  convolution_param {
    num_output: 256
    pad: 1
    kernel_size: 3
    stride: 1
    weight_filler {
      type: "xavier"
    }
    bias_filler {
      type: "constant"
    }
  }
}
layer {
  name: "pxs158"
  type: "reshape"
  bottom: "subpxconv158"
  top: "pxs158"
  reshape_param {
    pixelshuffler: 2
  }
}
layer {
  name: "relu158"
  type: "ReLU"
  bottom: "pxs158"
  top: "relu158"
}
layer {
  name: "subpxconv159"
  type: "Convolution"
  bottom: "relu158"
  top: "subpxconv159"
  convolution_param {
    num_output: 256
    pad: 1
    kernel_size: 3
    stride: 1
    weight_filler {
      type: "xavier"
    }
    bias_filler {
      type: "constant"
    }
  }
}
layer {
  name: "pxs159"
  type: "reshape"
  bottom: "subpxconv159"
  top: "pxs159"
  reshape_param {
    pixelshuffler: 2
  }
}
layer {
  name: "relu159"
  type: "ReLU"
  bottom: "pxs159"
  top: "relu159"
}
layer {
  name: "subpxconv160"
  type: "Convolution"
  bottom: "relu159"
  top: "subpxconv160"
  convolution_param {
    num_output: 256
    pad: 1
    kernel_size: 3
    stride: 1
    weight_filler {
      type: "xavier"
    }
    bias_filler {
      type: "constant"
    }
  }
}
layer {
  name: "pxs160"
  type: "reshape"
  bottom: "subpxconv160"
  top: "pxs160"
  reshape_param {
    pixelshuffler: 2
  }
}
layer {
  name: "relu160"
  type: "ReLU"
  bottom: "pxs160"
  top: "relu160"
}
layer {
  name: "subpxconv161"
  type: "Convolution"
  bottom: "relu160"
  top: "subpxconv161"
  convolution_param {
    num_output: 256
    pad: 1
    kernel_size: 3
    stride: 1
    weight_filler {
      type: "xavier"
    }
    bias_filler {
      type: "constant"
    }
  }
}
layer {
  name: "pxs161"
  type: "reshape"
  bottom: "subpxconv161"
  top: "pxs161"
  reshape_param {
    pixelshuffler: 2
  }
}
layer {
  name: "relu161"
  type: "ReLU"
  bottom: "pxs161"
  top: "relu161"
}
layer {
  name: "subpxconv162"
  type: "Convolution"
  bottom: "relu161"
  top: "subpxconv162"
  convolution_param {
    num_output: 256
    pad: 1
    kernel_size: 3
    stride: 1
    weight_filler {
      type: "xavier"
    }
    bias_filler {
      type: "constant"
    }
  }
}
layer {
  name: "pxs162"
  type: "reshape"
  bottom: "subpxconv162"
  top: "pxs162"
  reshape_param {
    pixelshuffler: 2
  }
}
layer {
  name: "relu162"
  type: "ReLU"
  bottom: "pxs162"
  top: "relu162"
}
layer {
  name: "subpxconv163"
  type: "Convolution"
  bottom: "relu162"
  top: "subpxconv163"
  convolution_param {
    num_output: 256
    pad: 1
    kernel_size: 3
    stride: 1
    weight_filler {
      type: "xavier"
    }
    bias_filler {
      type: "constant"
    }
  }
}
layer {
  name: "pxs163"
  type: "reshape"
  bottom: "subpxconv163"
  top: "pxs163"
  reshape_param {
    pixelshuffler: 2
  }
}
layer {
  name: "relu163"
  type: "ReLU"
  bottom: "pxs163"
  top: "relu163"
}
layer {
  name: "subpxconv164"
  type: "Convolution"
  bottom: "relu163"
  top: "subpxconv164"
  convolution_param {
    num_output: 256
    pad: 1
    kernel_size: 3
    stride: 1
    weight_filler {
      type: "xavier"
    }
    bias_filler {
      type: "constant"
    }
  }
}
layer {
  name: "pxs164"
  type: "reshape"
  bottom: "subpxconv164"
  top: "pxs164"
  reshape_param {
    pixelshuffler: 2
  }
}
layer {
  name: "relu164"
  type: "ReLU"
  bottom: "pxs164"
  top: "relu164"
}
layer {
  name: "subpxconv165"
  type: "Convolution"
  bottom: "relu164"
  top: "subpxconv165"
  convolution_param {
    num_output: 256
    pad: 1
    kernel_size: 3
    stride: 1
    weight_filler {
      type: "xavier"
    }
    bias_filler {
      type: "constant"
    }
  }
}
layer {
  name: "pxs165"
  type: "reshape"
  bottom: "subpxconv165"
  top: "pxs165"
  reshape_param {
    pixelshuffler: 2
  }
}
layer {
  name: "relu165"
  type: "ReLU"
  bottom: "pxs165"
  top: "relu165"
}
layer {
  name: "subpxconv166"
  type: "Convolution"
  bottom: "relu165"
  top: "subpxconv166"
  convolution_param {
    num_output: 256
    pad: 1
    kernel_size: 3
    stride: 1
    weight_filler {
      type: "xavier"
    }
    bias_filler {
      type: "constant"
    }
  }
}
layer {
  name: "pxs166"
  type: "reshape"
  bottom: "subpxconv166"
  top: "pxs166"
  reshape_param {
    pixelshuffler: 2
  }
}
layer {
  name: "relu166"
  type: "ReLU"
  bottom: "pxs166"
  top: "relu166"
}
layer {
  name: "subpxconv167"
  type: "Convolution"
  bottom: "relu166"
  top: "subpxconv167"
  convolution_param {
    num_output: 256
    pad: 1
    kernel_size: 3
    stride: 1
    weight_filler {
      type: "xavier"
    }
    bias_filler {
      type: "constant"
    }
  }
}
layer {
  name: "pxs167"
  type: "reshape"
  bottom: "subpxconv167"
  top: "pxs167"
  reshape_param {
    pixelshuffler: 2
  }
}
layer {
  name: "relu167"
  type: "ReLU"
  bottom: "pxs167"
  top: "relu167"
}
layer {
  name: "subpxconv168"
  type: "Convolution"
  bottom: "relu167"
  top: "subpxconv168"
  convolution_param {
    num_output: 256
    pad: 1
    kernel_size: 3
    stride: 1
    weight_filler {
      type: "xavier"
    }
    bias_filler {
      type: "constant"
    }
  }
}
layer {
  name: "pxs168"
  type: "reshape"
  bottom: "subpxconv168"
  top: "pxs168"
  reshape_param {
    pixelshuffler: 2
  }
}
layer {
  name: "relu168"
  type: "ReLU"
  bottom: "pxs168"
  top: "relu168"
}
layer {
  name: "subpxconv169"
  type: "Convolution"
  bottom: "relu168"
  top: "subpxconv169"
  convolution_param {
    num_output: 256
    pad: 1
    kernel_size: 3
    stride: 1
    weight_filler {
      type: "xavier"
    }
    bias_filler {
      type: "constant"
    }
  }
}
layer {
  name: "pxs169"
  type: "reshape"
  bottom: "subpxconv169"
  top: "pxs169"
  reshape_param {
    pixelshuffler: 2
  }
}
layer {
  name: "relu169"
  type: "ReLU"
  bottom: "pxs169"
  top: "relu169"
}
layer {
  name: "subpxconv170"
  type: "Convolution"
  bottom: "relu169"
  top: "subpxconv170"
  convolution_param {
    num_output: 256
    pad: 1
    kernel_size: 3
    stride: 1
    weight_filler {
      type: "xavier"
    }
    bias_filler {
      type: "constant"
    }
  }
}
layer {
  name: "pxs170"
  type: "reshape"
  bottom: "subpxconv170"
  top: "pxs170"
  reshape_param {
    pixelshuffler: 2
  }
}
layer {
  name: "relu170"
  type: "ReLU"
  bottom: "pxs170"
  top: "relu170"
}
layer {
  name: "subpxconv171"
  type: "Convolution"
  bottom: "relu170"
  top: "subpxconv171"
  convolution_param {
    num_output: 256
    pad: 1
    kernel_size: 3
    stride: 1
    weight_filler {
      type: "xavier"
    }
    bias_filler {
      type: "constant"
    }
  }
}
layer {
  name: "pxs171"
  type: "reshape"
  bottom: "subpxconv171"
  top: "pxs171"
  reshape_param {
    pixelshuffler: 2
  }
}
layer {
  name: "relu171"
  type: "ReLU"
  bottom: "pxs171"
  top: "relu171"
}
layer {
  name: "subpxconv172"
  type: "Convolution"
  bottom: "relu171"
  top: "subpxconv172"
  convolution_param {
    num_output: 256
    pad: 1
    kernel_size: 3
    stride: 1
    weight_filler {
      type: "xavier"
    }
    bias_filler {
      type: "constant"
    }
  }
}
layer {
  name: "pxs172"
  type: "reshape"
  bottom: "subpxconv172"
  top: "pxs172"
  reshape_param {
    pixelshuffler: 2
  }
}
layer {
  name: "relu172"
  type: "ReLU"
  bottom: "pxs172"
  top: "relu172"
}
layer {
  name: "subpxconv173"
  type: "Convolution"
  bottom: "relu172"
  top: "subpxconv173"
  convolution_param {
    num_output: 256
    pad: 1
    kernel_size: 3
    stride: 1
    weight_filler {
      type: "xavier"
    }
    bias_filler {
      type: "constant"
    }
  }
}
layer {
  name: "pxs173"
  type: "reshape"
  bottom: "subpxconv173"
  top: "pxs173"
  reshape_param {
    pixelshuffler: 2
  }
}
layer {
  name: "relu173"
  type: "ReLU"
  bottom: "pxs173"
  top: "relu173"
}
layer {
  name: "subpxconv174"
  type: "Convolution"
  bottom: "relu173"
  top: "subpxconv174"
  convolution_param {
    num_output: 256
    pad: 1
    kernel_size: 3
    stride: 1
    weight_filler {
      type: "xavier"
    }
    bias_filler {
      type: "constant"
    }
  }
}
layer {
  name: "pxs174"
  type: "reshape"
  bottom: "subpxconv174"
  top: "pxs174"
  reshape_param {
    pixelshuffler: 2
  }
}
layer {
  name: "relu174"
  type: "ReLU"
  bottom: "pxs174"
  top: "relu174"
}
layer {
  name: "subpxconv175"
  type: "Convolution"
  bottom: "relu174"
  top: "subpxconv175"
  convolution_param {
    num_output: 256
    pad: 1
    kernel_size: 3
    stride: 1
    weight_filler {
      type: "xavier"
    }
    bias_filler {
      type: "constant"
    }
  }
}
layer {
  name: "pxs175"
  type: "reshape"
  bottom: "subpxconv175"
  top: "pxs175"
  reshape_param {
    pixelshuffler: 2
  }
}
layer {
  name: "relu175"
  type: "ReLU"
  bottom: "pxs175"
  top: "relu175"
}
layer {
  name: "subpxconv176"
  type: "Convolution"
  bottom: "relu175"
  top: "subpxconv176"
  convolution_param {
    num_output: 256
    pad: 1
    kernel_size: 3
    stride: 1
    weight_filler {
      type: "xavier"
    }
    bias_filler {
      type: "constant"
    }
  }
}
layer {
  name: "pxs176"
  type: "reshape"
  bottom: "subpxconv176"
  top: "pxs176"
  reshape_param {
    pixelshuffler: 2
  }
}
layer {
  name: "relu176"
  type: "ReLU"
  bottom: "pxs176"
  top: "relu176"
}
layer {
  name: "subpxconv177"
  type: "Convolution"
  bottom: "relu176"
  top: "subpxconv177"
  convolution_param {
    num_output: 256
    pad: 1
    kernel_size: 3
    stride: 1
    weight_filler {
      type: "xavier"
    }
    bias_filler {
      type: "constant"
    }
  }
}
layer {
  name: "pxs177"
  type: "reshape"
  bottom: "subpxconv177"
  top: "pxs177"
  reshape_param {
    pixelshuffler: 2
  }
}
layer {
  name: "relu177"
  type: "ReLU"
  bottom: "pxs177"
  top: "relu177"
}
layer {
  name: "subpxconv178"
  type: "Convolution"
  bottom: "relu177"
  top: "subpxconv178"
  convolution_param {
    num_output: 256
    pad: 1
    kernel_size: 3
    stride: 1
    weight_filler {
      type: "xavier"
    }
    bias_filler {
      type: "constant"
    }
  }
}
layer {
  name: "pxs178"
  type: "reshape"
  bottom: "subpxconv178"
  top: "pxs178"
  reshape_param {
    pixelshuffler: 2
  }
}
layer {
  name: "relu178"
  type: "ReLU"
  bottom: "pxs178"
  top: "relu178"
}
layer {
  name: "subpxconv179"
  type: "Convolution"
  bottom: "relu178"
  top: "subpxconv179"
  convolution_param {
    num_output: 256
    pad: 1
    kernel_size: 3
    stride: 1
    weight_filler {
      type: "xavier"
    }
    bias_filler {
      type: "constant"
    }
  }
}
layer {
  name: "pxs179"
  type: "reshape"
  bottom: "subpxconv179"
  top: "pxs179"
  reshape_param {
    pixelshuffler: 2
  }
}
layer {
  name: "relu179"
  type: "ReLU"
  bottom: "pxs179"
  top: "relu179"
}
layer {
  name: "subpxconv180"
  type: "Convolution"
  bottom: "relu179"
  top: "subpxconv180"
  convolution_param {
    num_output: 256
    pad: 1
    kernel_size: 3
    stride: 1
    weight_filler {
      type: "xavier"
    }
    bias_filler {
      type: "constant"
    }
  }
}
layer {
  name: "pxs180"
  type: "reshape"
  bottom: "subpxconv180"
  top: "pxs180"
  reshape_param {
    pixelshuffler: 2
  }
}
layer {
  name: "relu180"
  type: "ReLU"
  bottom: "pxs180"
  top: "relu180"
}
layer {
  name: "subpxconv181"
  type: "Convolution"
  bottom: "relu180"
  top: "subpxconv181"
  convolution_param {
    num_output: 256
    pad: 1
    kernel_size: 3
    stride: 1
    weight_filler {
      type: "xavier"
    }
    bias_filler {
      type: "constant"
    }
  }
}
layer {
  name: "pxs181"
  type: "reshape"
  bottom: "subpxconv181"
  top: "pxs181"
  reshape_param {
    pixelshuffler: 2
  }
}
layer {
  name: "relu181"
  type: "ReLU"
  bottom: "pxs181"
  top: "relu181"
}
layer {
  name: "subpxconv182"
  type: "Convolution"
  bottom: "relu181"
  top: "subpxconv182"
  convolution_param {
    num_output: 256
    pad: 1
    kernel_size: 3
    stride: 1
    weight_filler {
      type: "xavier"
    }
    bias_filler {
      type: "constant"
    }
  }
}
layer {
  name: "pxs182"
  type: "reshape"
  bottom: "subpxconv182"
  top: "pxs182"
  reshape_param {
    pixelshuffler: 2
  }
}
layer {
  name: "relu182"
  type: "ReLU"
  bottom: "pxs182"
  top: "relu182"
}
layer {
  name: "subpxconv183"
  type: "Convolution"
  bottom: "relu182"
  top: "subpxconv183"
  convolution_param {
    num_output: 256
    pad: 1
    kernel_size: 3
    stride: 1
    weight_filler {
      type: "xavier"
    }
    bias_filler {
      type: "constant"
    }
  }
}
layer {
  name: "pxs183"
  type: "reshape"
  bottom: "subpxconv183"
  top: "pxs183"
  reshape_param {
    pixelshuffler: 2
  }
}
layer {
  name: "relu183"
  type: "ReLU"
  bottom: "pxs183"
  top: "relu183"
}
layer {
  name: "subpxconv184"
  type: "Convolution"
  bottom: "relu183"
  top: "subpxconv184"
  convolution_param {
    num_output: 256
    pad: 1
    kernel_size: 3
    stride: 1
    weight_filler {
      type: "xavier"
    }
    bias_filler {
      type: "constant"
    }
  }
}
layer {
  name: "pxs184"
  type: "reshape"
  bottom: "subpxconv184"
  top: "pxs184"
  reshape_param {
    pixelshuffler: 2
  }
}
layer {
  name: "relu184"
  type: "ReLU"
  bottom: "pxs184"
  top: "relu184"
}
layer {
  name: "subpxconv185"
  type: "Convolution"
  bottom: "relu184"
  top: "subpxconv185"
  convolution_param {
    num_output: 256
    pad: 1
    kernel_size: 3
    stride: 1
    weight_filler {
      type: "xavier"
    }
    bias_filler {
      type: "constant"
    }
  }
}
layer {
  name: "pxs185"
  type: "reshape"
  bottom: "subpxconv185"
  top: "pxs185"
  reshape_param {
    pixelshuffler: 2
  }
}
layer {
  name: "relu185"
  type: "ReLU"
  bottom: "pxs185"
  top: "relu185"
}
layer {
  name: "subpxconv186"
  type: "Convolution"
  bottom: "relu185"
  top: "subpxconv186"
  convolution_param {
    num_output: 256
    pad: 1
    kernel_size: 3
    stride: 1
    weight_filler {
      type: "xavier"
    }
    bias_filler {
      type: "constant"
    }
  }
}
layer {
  name: "pxs186"
  type: "reshape"
  bottom: "subpxconv186"
  top: "pxs186"
  reshape_param {
    pixelshuffler: 2
  }
}
layer {
  name: "relu186"
  type: "ReLU"
  bottom: "pxs186"
  top: "relu186"
}
layer {
  name: "subpxconv187"
  type: "Convolution"
  bottom: "relu186"
  top: "subpxconv187"
  convolution_param {
    num_output: 256
    pad: 1
    kernel_size: 3
    stride: 1
    weight_filler {
      type: "xavier"
    }
    bias_filler {
      type: "constant"
    }
  }
}
layer {
  name: "pxs187"
  type: "reshape"
  bottom: "subpxconv187"
  top: "pxs187"
  reshape_param {
    pixelshuffler: 2
  }
}
layer {
  name: "relu187"
  type: "ReLU"
  bottom: "pxs187"
  top: "relu187"
}
layer {
  name: "subpxconv188"
  type: "Convolution"
  bottom: "relu187"
  top: "subpxconv188"
  convolution_param {
    num_output: 256
    pad: 1
    kernel_size: 3
    stride: 1
    weight_filler {
      type: "xavier"
    }
    bias_filler {
      type: "constant"
    }
  }
}
layer {
  name: "pxs188"
  type: "reshape"
  bottom: "subpxconv188"
  top: "pxs188"
  reshape_param {
    pixelshuffler: 2
  }
}
layer {
  name: "relu188"
  type: "ReLU"
  bottom: "pxs188"
  top: "relu188"
}
layer {
  name: "subpxconv189"
  type: "Convolution"
  bottom: "relu188"
  top: "subpxconv189"
  convolution_param {
    num_output: 256
    pad: 1
    kernel_size: 3
    stride: 1
    weight_filler {
      type: "xavier"
    }
    bias_filler {
      type: "constant"
    }
  }
}
layer {
  name: "pxs189"
  type: "reshape"
  bottom: "subpxconv189"
  top: "pxs189"
  reshape_param {
    pixelshuffler: 2
  }
}
layer {
  name: "relu189"
  type: "ReLU"
  bottom: "pxs189"
  top: "relu189"
}
layer {
  name: "subpxconv190"
  type: "Convolution"
  bottom: "relu189"
  top: "subpxconv190"
  convolution_param {
    num_output: 256
    pad: 1
    kernel_size: 3
    stride: 1
    weight_filler {
      type: "xavier"
    }
    bias_filler {
      type: "constant"
    }
  }
}
layer {
  name: "pxs190"
  type: "reshape"
  bottom: "subpxconv190"
  top: "pxs190"
  reshape_param {
    pixelshuffler: 2
  }
}
layer {
  name: "relu190"
  type: "ReLU"
  bottom: "pxs190"
  top: "relu190"
}
layer {
  name: "subpxconv191"
  type: "Convolution"
  bottom: "relu190"
  top: "subpxconv191"
  convolution_param {
    num_output: 256
    pad: 1
    kernel_size: 3
    stride: 1
    weight_filler {
      type: "xavier"
    }
    bias_filler {
      type: "constant"
    }
  }
}
layer {
  name: "pxs191"
  type: "reshape"
  bottom: "subpxconv191"
  top: "pxs191"
  reshape_param {
    pixelshuffler: 2
  }
}
layer {
  name: "relu191"
  type: "ReLU"
  bottom: "pxs191"
  top: "relu191"
}
layer {
  name: "subpxconv192"
  type: "Convolution"
  bottom: "relu191"
  top: "subpxconv192"
  convolution_param {
    num_output: 256
    pad: 1
    kernel_size: 3
    stride: 1
    weight_filler {
      type: "xavier"
    }
    bias_filler {
      type: "constant"
    }
  }
}
layer {
  name: "pxs192"
  type: "reshape"
  bottom: "subpxconv192"
  top: "pxs192"
  reshape_param {
    pixelshuffler: 2
  }
}
layer {
  name: "relu192"
  type: "ReLU"
  bottom: "pxs192"
  top: "relu192"
}
layer {
  name: "subpxconv193"
  type: "Convolution"
  bottom: "relu192"
  top: "subpxconv193"
  convolution_param {
    num_output: 256
    pad: 1
    kernel_size: 3
    stride: 1
    weight_filler {
      type: "xavier"
    }
    bias_filler {
      type: "constant"
    }
  }
}
layer {
  name: "pxs193"
  type: "reshape"
  bottom: "subpxconv193"
  top: "pxs193"
  reshape_param {
    pixelshuffler: 2
  }
}
layer {
  name: "relu193"
  type: "ReLU"
  bottom: "pxs193"
  top: "relu193"
}
layer {
  name: "subpxconv194"
  type: "Convolution"
  bottom: "relu193"
  top: "subpxconv194"
  convolution_param {
    num_output: 256
    pad: 1
    kernel_size: 3
    stride: 1
    weight_filler {
      type: "xavier"
    }
    bias_filler {
      type: "constant"
    }
  }
}
layer {
  name: "pxs194"
  type: "reshape"
  bottom: "subpxconv194"
  top: "pxs194"
  reshape_param {
    pixelshuffler: 2
  }
}
layer {
  name: "relu194"
  type: "ReLU"
  bottom: "pxs194"
  top: "relu194"
}
layer {
  name: "subpxconv195"
  type: "Convolution"
  bottom: "relu194"
  top: "subpxconv195"
  convolution_param {
    num_output: 256
    pad: 1
    kernel_size: 3
    stride: 1
    weight_filler {
      type: "xavier"
    }
    bias_filler {
      type: "constant"
    }
  }
}
layer {
  name: "pxs195"
  type: "reshape"
  bottom: "subpxconv195"
  top: "pxs195"
  reshape_param {
    pixelshuffler: 2
  }
}
layer {
  name: "relu195"
  type: "ReLU"
  bottom: "pxs195"
  top: "relu195"
}
layer {
  name: "subpxconv196"
  type: "Convolution"
  bottom: "relu195"
  top: "subpxconv196"
  convolution_param {
    num_output: 256
    pad: 1
    kernel_size: 3
    stride: 1
    weight_filler {
      type: "xavier"
    }
    bias_filler {
      type: "constant"
    }
  }
}
layer {
  name: "pxs196"
  type: "reshape"
  bottom: "subpxconv196"
  top: "pxs196"
  reshape_param {
    pixelshuffler: 2
  }
}
layer {
  name: "relu196"
  type: "ReLU"
  bottom: "pxs196"
  top: "relu196"
}
layer {
  name: "subpxconv197"
  type: "Convolution"
  bottom: "relu196"
  top: "subpxconv197"
  convolution_param {
    num_output: 256
    pad: 1
    kernel_size: 3
    stride: 1
    weight_filler {
      type: "xavier"
    }
    bias_filler {
      type: "constant"
    }
  }
}
layer {
  name: "pxs197"
  type: "reshape"
  bottom: "subpxconv197"
  top: "pxs197"
  reshape_param {
    pixelshuffler: 2
  }
}
layer {
  name: "relu197"
  type: "ReLU"
  bottom: "pxs197"
  top: "relu197"
}
layer {
  name: "subpxconv198"
  type: "Convolution"
  bottom: "relu197"
  top: "subpxconv198"
  convolution_param {
    num_output: 256
    pad: 1
    kernel_size: 3
    stride: 1
    weight_filler {
      type: "xavier"
    }
    bias_filler {
      type: "constant"
    }
  }
}
layer {
  name: "pxs198"
  type: "reshape"
  bottom: "subpxconv198"
  top: "pxs198"
  reshape_param {
    pixelshuffler: 2
  }
}
layer {
  name: "relu198"
  type: "ReLU"
  bottom: "pxs198"
  top: "relu198"
}
layer {
  name: "subpxconv199"
  type: "Convolution"
  bottom: "relu198"
  top: "subpxconv199"
  convolution_param {
    num_output: 256
    pad: 1
    kernel_size: 3
    stride: 1
    weight_filler {
      type: "xavier"
    }
    bias_filler {
      type: "constant"
    }
  }
}
layer {
  name: "pxs199"
  type: "reshape"
  bottom: "subpxconv199"
  top: "pxs199"
  reshape_param {
    pixelshuffler: 2
  }
}
layer {
  name: "relu199"
  type: "ReLU"
  bottom: "pxs199"
  top: "relu199"
}
layer {
  name: "subpxconv200"
  type: "Convolution"
  bottom: "relu199"
  top: "subpxconv200"
  convolution_param {
    num_output: 256
    pad: 1
    kernel_size: 3
    stride: 1
    weight_filler {
      type: "xavier"
    }
    bias_filler {
      type: "constant"
    }
  }
}
layer {
  name: "pxs200"
  type: "reshape"
  bottom: "subpxconv200"
  top: "pxs200"
  reshape_param {
    pixelshuffler: 2
  }
}
layer {
  name: "relu200"
  type: "ReLU"
  bottom: "pxs200"
  top: "relu200"
}
layer {
  name: "subpxconv201"
  type: "Convolution"
  bottom: "relu200"
  top: "subpxconv201"
  convolution_param {
    num_output: 256
    pad: 1
    kernel_size: 3
    stride: 1
    weight_filler {
      type: "xavier"
    }
    bias_filler {
      type: "constant"
    }
  }
}
layer {
  name: "pxs201"
  type: "reshape"
  bottom: "subpxconv201"
  top: "pxs201"
  reshape_param {
    pixelshuffler: 2
  }
}
layer {
  name: "relu201"
  type: "ReLU"
  bottom: "pxs201"
  top: "relu201"
}
layer {
  name: "subpxconv202"
  type: "Convolution"
  bottom: "relu201"
  top: "subpxconv202"
  convolution_param {
    num_output: 256
    pad: 1
    kernel_size: 3
    stride: 1
    weight_filler {
      type: "xavier"
    }
    bias_filler {
      type: "constant"
    }
  }
}
layer {
  name: "pxs202"
  type: "reshape"
  bottom: "subpxconv202"
  top: "pxs202"
  reshape_param {
    pixelshuffler: 2
  }
}
layer {
  name: "relu202"
  type: "ReLU"
  bottom: "pxs202"
  top: "relu202"
}
layer {
  name: "subpxconv203"
  type: "Convolution"
  bottom: "relu202"
  top: "subpxconv203"
  convolution_param {
    num_output: 256
    pad: 1
    kernel_size: 3
    stride: 1
    weight_filler {
      type: "xavier"
    }
    bias_filler {
      type: "constant"
    }
  }
}
layer {
  name: "pxs203"
  type: "reshape"
  bottom: "subpxconv203"
  top: "pxs203"
  reshape_param {
    pixelshuffler: 2
  }
}
layer {
  name: "relu203"
  type: "ReLU"
  bottom: "pxs203"
  top: "relu203"
}
layer {
  name: "subpxconv204"
  type: "Convolution"
  bottom: "relu203"
  top: "subpxconv204"
  convolution_param {
    num_output: 256
    pad: 1
    kernel_size: 3
    stride: 1
    weight_filler {
      type: "xavier"
    }
    bias_filler {
      type: "constant"
    }
  }
}
layer {
  name: "pxs204"
  type: "reshape"
  bottom: "subpxconv204"
  top: "pxs204"
  reshape_param {
    pixelshuffler: 2
  }
}
layer {
  name: "relu204"
  type: "ReLU"
  bottom: "pxs204"
  top: "relu204"
}
layer {
  name: "subpxconv205"
  type: "Convolution"
  bottom: "relu204"
  top: "subpxconv205"
  convolution_param {
    num_output: 256
    pad: 1
    kernel_size: 3
    stride: 1
    weight_filler {
      type: "xavier"
    }
    bias_filler {
      type: "constant"
    }
  }
}
layer {
  name: "pxs205"
  type: "reshape"
  bottom: "subpxconv205"
  top: "pxs205"
  reshape_param {
    pixelshuffler: 2
  }
}
layer {
  name: "relu205"
  type: "ReLU"
  bottom: "pxs205"
  top: "relu205"
}
layer {
  name: "subpxconv206"
  type: "Convolution"
  bottom: "relu205"
  top: "subpxconv206"
  convolution_param {
    num_output: 256
    pad: 1
    kernel_size: 3
    stride: 1
    weight_filler {
      type: "xavier"
    }
    bias_filler {
      type: "constant"
    }
  }
}
layer {
  name: "pxs206"
  type: "reshape"
  bottom: "subpxconv206"
  top: "pxs206"
  reshape_param {
    pixelshuffler: 2
  }
}
layer {
  name: "relu206"
  type: "ReLU"
  bottom: "pxs206"
  top: "relu206"
}
layer {
  name: "subpxconv207"
  type: "Convolution"
  bottom: "relu206"
  top: "subpxconv207"
  convolution_param {
    num_output: 256
    pad: 1
    kernel_size: 3
    stride: 1
    weight_filler {
      type: "xavier"
    }
    bias_filler {
      type: "constant"
    }
  }
}
layer {
  name: "pxs207"
  type: "reshape"
  bottom: "subpxconv207"
  top: "pxs207"
  reshape_param {
    pixelshuffler: 2
  }
}
layer {
  name: "relu207"
  type: "ReLU"
  bottom: "pxs207"
  top: "relu207"
}
layer {
  name: "subpxconv208"
  type: "Convolution"
  bottom: "relu207"
  top: "subpxconv208"
  convolution_param {
    num_output: 256
    pad: 1
    kernel_size: 3
    stride: 1
    weight_filler {
      type: "xavier"
    }
    bias_filler {
      type: "constant"
    }
  }
}
layer {
  name: "pxs208"
  type: "reshape"
  bottom: "subpxconv208"
  top: "pxs208"
  reshape_param {
    pixelshuffler: 2
  }
}
layer {
  name: "relu208"
  type: "ReLU"
  bottom: "pxs208"
  top: "relu208"
}
layer {
  name: "subpxconv209"
  type: "Convolution"
  bottom: "relu208"
  top: "subpxconv209"
  convolution_param {
    num_output: 256
    pad: 1
    kernel_size: 3
    stride: 1
    weight_filler {
      type: "xavier"
    }
    bias_filler {
      type: "constant"
    }
  }
}
layer {
  name: "pxs209"
  type: "reshape"
  bottom: "subpxconv209"
  top: "pxs209"
  reshape_param {
    pixelshuffler: 2
  }
}
layer {
  name: "relu209"
  type: "ReLU"
  bottom: "pxs209"
  top: "relu209"
}
layer {
  name: "subpxconv210"
  type: "Convolution"
  bottom: "relu209"
  top: "subpxconv210"
  convolution_param {
    num_output: 256
    pad: 1
    kernel_size: 3
    stride: 1
    weight_filler {
      type: "xavier"
    }
    bias_filler {
      type: "constant"
    }
  }
}
layer {
  name: "pxs210"
  type: "reshape"
  bottom: "subpxconv210"
  top: "pxs210"
  reshape_param {
    pixelshuffler: 2
  }
}
layer {
  name: "relu210"
  type: "ReLU"
  bottom: "pxs210"
  top: "relu210"
}
layer {
  name: "subpxconv211"
  type: "Convolution"
  bottom: "relu210"
  top: "subpxconv211"
  convolution_param {
    num_output: 256
    pad: 1
    kernel_size: 3
    stride: 1
    weight_filler {
      type: "xavier"
    }
    bias_filler {
      type: "constant"
    }
  }
}
layer {
  name: "pxs211"
  type: "reshape"
  bottom: "subpxconv211"
  top: "pxs211"
  reshape_param {
    pixelshuffler: 2
  }
}
layer {
  name: "relu211"
  type: "ReLU"
  bottom: "pxs211"
  top: "relu211"
}
layer {
  name: "subpxconv212"
  type: "Convolution"
  bottom: "relu211"
  top: "subpxconv212"
  convolution_param {
    num_output: 256
    pad: 1
    kernel_size: 3
    stride: 1
    weight_filler {
      type: "xavier"
    }
    bias_filler {
      type: "constant"
    }
  }
}
layer {
  name: "pxs212"
  type: "reshape"
  bottom: "subpxconv212"
  top: "pxs212"
  reshape_param {
    pixelshuffler: 2
  }
}
layer {
  name: "relu212"
  type: "ReLU"
  bottom: "pxs212"
  top: "relu212"
}
layer {
  name: "subpxconv213"
  type: "Convolution"
  bottom: "relu212"
  top: "subpxconv213"
  convolution_param {
    num_output: 256
    pad: 1
    kernel_size: 3
    stride: 1
    weight_filler {
      type: "xavier"
    }
    bias_filler {
      type: "constant"
    }
  }
}
layer {
  name: "pxs213"
  type: "reshape"
  bottom: "subpxconv213"
  top: "pxs213"
  reshape_param {
    pixelshuffler: 2
  }
}
layer {
  name: "relu213"
  type: "ReLU"
  bottom: "pxs213"
  top: "relu213"
}
layer {
  name: "subpxconv214"
  type: "Convolution"
  bottom: "relu213"
  top: "subpxconv214"
  convolution_param {
    num_output: 256
    pad: 1
    kernel_size: 3
    stride: 1
    weight_filler {
      type: "xavier"
    }
    bias_filler {
      type: "constant"
    }
  }
}
layer {
  name: "pxs214"
  type: "reshape"
  bottom: "subpxconv214"
  top: "pxs214"
  reshape_param {
    pixelshuffler: 2
  }
}
layer {
  name: "relu214"
  type: "ReLU"
  bottom: "pxs214"
  top: "relu214"
}
layer {
  name: "subpxconv215"
  type: "Convolution"
  bottom: "relu214"
  top: "subpxconv215"
  convolution_param {
    num_output: 256
    pad: 1
    kernel_size: 3
    stride: 1
    weight_filler {
      type: "xavier"
    }
    bias_filler {
      type: "constant"
    }
  }
}
layer {
  name: "pxs215"
  type: "reshape"
  bottom: "subpxconv215"
  top: "pxs215"
  reshape_param {
    pixelshuffler: 2
  }
}
layer {
  name: "relu215"
  type: "ReLU"
  bottom: "pxs215"
  top: "relu215"
}
layer {
  name: "subpxconv216"
  type: "Convolution"
  bottom: "relu215"
  top: "subpxconv216"
  convolution_param {
    num_output: 256
    pad: 1
    kernel_size: 3
    stride: 1
    weight_filler {
      type: "xavier"
    }
    bias_filler {
      type: "constant"
    }
  }
}
layer {
  name: "pxs216"
  type: "reshape"
  bottom: "subpxconv216"
  top: "pxs216"
  reshape_param {
    pixelshuffler: 2
  }
}
layer {
  name: "relu216"
  type: "ReLU"
  bottom: "pxs216"
  top: "relu216"
}
layer {
  name: "subpxconv217"
  type: "Convolution"
  bottom: "relu216"
  top: "subpxconv217"
  convolution_param {
    num_output: 256
    pad: 1
    kernel_size: 3
    stride: 1
    weight_filler {
      type: "xavier"
    }
    bias_filler {
      type: "constant"
    }
  }
}
layer {
  name: "pxs217"
  type: "reshape"
  bottom: "subpxconv217"
  top: "pxs217"
  reshape_param {
    pixelshuffler: 2
  }
}
layer {
  name: "relu217"
  type: "ReLU"
  bottom: "pxs217"
  top: "relu217"
}
layer {
  name: "subpxconv218"
  type: "Convolution"
  bottom: "relu217"
  top: "subpxconv218"
  convolution_param {
    num_output: 256
    pad: 1
    kernel_size: 3
    stride: 1
    weight_filler {
      type: "xavier"
    }
    bias_filler {
      type: "constant"
    }
  }
}
layer {
  name: "pxs218"
  type: "reshape"
  bottom: "subpxconv218"
  top: "pxs218"
  reshape_param {
    pixelshuffler: 2
  }
}
layer {
  name: "relu218"
  type: "ReLU"
  bottom: "pxs218"
  top: "relu218"
}
layer {
  name: "subpxconv219"
  type: "Convolution"
  bottom: "relu218"
  top: "subpxconv219"
  convolution_param {
    num_output: 256
    pad: 1
    kernel_size: 3
    stride: 1
    weight_filler {
      type: "xavier"
    }
    bias_filler {
      type: "constant"
    }
  }
}
layer {
  name: "pxs219"
  type: "reshape"
  bottom: "subpxconv219"
  top: "pxs219"
  reshape_param {
    pixelshuffler: 2
  }
}
layer {
  name: "relu219"
  type: "ReLU"
  bottom: "pxs219"
  top: "relu219"
}
layer {
  name: "subpxconv220"
  type: "Convolution"
  bottom: "relu219"
  top: "subpxconv220"
  convolution_param {
    num_output: 256
    pad: 1
    kernel_size: 3
    stride: 1
    weight_filler {
      type: "xavier"
    }
    bias_filler {
      type: "constant"
    }
  }
}
layer {
  name: "pxs220"
  type: "reshape"
  bottom: "subpxconv220"
  top: "pxs220"
  reshape_param {
    pixelshuffler: 2
  }
}
layer {
  name: "relu220"
  type: "ReLU"
  bottom: "pxs220"
  top: "relu220"
}
layer {
  name: "subpxconv221"
  type: "Convolution"
  bottom: "relu220"
  top: "subpxconv221"
  convolution_param {
    num_output: 256
    pad: 1
    kernel_size: 3
    stride: 1
    weight_filler {
      type: "xavier"
    }
    bias_filler {
      type: "constant"
    }
  }
}
layer {
  name: "pxs221"
  type: "reshape"
  bottom: "subpxconv221"
  top: "pxs221"
  reshape_param {
    pixelshuffler: 2
  }
}
layer {
  name: "relu221"
  type: "ReLU"
  bottom: "pxs221"
  top: "relu221"
}
layer {
  name: "subpxconv222"
  type: "Convolution"
  bottom: "relu221"
  top: "subpxconv222"
  convolution_param {
    num_output: 256
    pad: 1
    kernel_size: 3
    stride: 1
    weight_filler {
      type: "xavier"
    }
    bias_filler {
      type: "constant"
    }
  }
}
layer {
  name: "pxs222"
  type: "reshape"
  bottom: "subpxconv222"
  top: "pxs222"
  reshape_param {
    pixelshuffler: 2
  }
}
layer {
  name: "relu222"
  type: "ReLU"
  bottom: "pxs222"
  top: "relu222"
}
layer {
  name: "subpxconv223"
  type: "Convolution"
  bottom: "relu222"
  top: "subpxconv223"
  convolution_param {
    num_output: 256
    pad: 1
    kernel_size: 3
    stride: 1
    weight_filler {
      type: "xavier"
    }
    bias_filler {
      type: "constant"
    }
  }
}
layer {
  name: "pxs223"
  type: "reshape"
  bottom: "subpxconv223"
  top: "pxs223"
  reshape_param {
    pixelshuffler: 2
  }
}
layer {
  name: "relu223"
  type: "ReLU"
  bottom: "pxs223"
  top: "relu223"
}
layer {
  name: "subpxconv224"
  type: "Convolution"
  bottom: "relu223"
  top: "subpxconv224"
  convolution_param {
    num_output: 256
    pad: 1
    kernel_size: 3
    stride: 1
    weight_filler {
      type: "xavier"
    }
    bias_filler {
      type: "constant"
    }
  }
}
layer {
  name: "pxs224"
  type: "reshape"
  bottom: "subpxconv224"
  top: "pxs224"
  reshape_param {
    pixelshuffler: 2
  }
}
layer {
  name: "relu224"
  type: "ReLU"
  bottom: "pxs224"
  top: "relu224"
}
layer {
  name: "subpxconv225"
  type: "Convolution"
  bottom: "relu224"
  top: "subpxconv225"
  convolution_param {
    num_output: 256
    pad: 1
    kernel_size: 3
    stride: 1
    weight_filler {
      type: "xavier"
    }
    bias_filler {
      type: "constant"
    }
  }
}
layer {
  name: "pxs225"
  type: "reshape"
  bottom: "subpxconv225"
  top: "pxs225"
  reshape_param {
    pixelshuffler: 2
  }
}
layer {
  name: "relu225"
  type: "ReLU"
  bottom: "pxs225"
  top: "relu225"
}
layer {
  name: "subpxconv226"
  type: "Convolution"
  bottom: "relu225"
  top: "subpxconv226"
  convolution_param {
    num_output: 256
    pad: 1
    kernel_size: 3
    stride: 1
    weight_filler {
      type: "xavier"
    }
    bias_filler {
      type: "constant"
    }
  }
}
layer {
  name: "pxs226"
  type: "reshape"
  bottom: "subpxconv226"
  top: "pxs226"
  reshape_param {
    pixelshuffler: 2
  }
}
layer {
  name: "relu226"
  type: "ReLU"
  bottom: "pxs226"
  top: "relu226"
}
layer {
  name: "subpxconv227"
  type: "Convolution"
  bottom: "relu226"
  top: "subpxconv227"
  convolution_param {
    num_output: 256
    pad: 1
    kernel_size: 3
    stride: 1
    weight_filler {
      type: "xavier"
    }
    bias_filler {
      type: "constant"
    }
  }
}
layer {
  name: "pxs227"
  type: "reshape"
  bottom: "subpxconv227"
  top: "pxs227"
  reshape_param {
    pixelshuffler: 2
  }
}
layer {
  name: "relu227"
  type: "ReLU"
  bottom: "pxs227"
  top: "relu227"
}
layer {
  name: "subpxconv228"
  type: "Convolution"
  bottom: "relu227"
  top: "subpxconv228"
  convolution_param {
    num_output: 256
    pad: 1
    kernel_size: 3
    stride: 1
    weight_filler {
      type: "xavier"
    }
    bias_filler {
      type: "constant"
    }
  }
}
layer {
  name: "pxs228"
  type: "reshape"
  bottom: "subpxconv228"
  top: "pxs228"
  reshape_param {
    pixelshuffler: 2
  }
}
layer {
  name: "relu228"
  type: "ReLU"
  bottom: "pxs228"
  top: "relu228"
}
layer {
  name: "subpxconv229"
  type: "Convolution"
  bottom: "relu228"
  top: "subpxconv229"
  convolution_param {
    num_output: 256
    pad: 1
    kernel_size: 3
    stride: 1
    weight_filler {
      type: "xavier"
    }
    bias_filler {
      type: "constant"
    }
  }
}
layer {
  name: "pxs229"
  type: "reshape"
  bottom: "subpxconv229"
  top: "pxs229"
  reshape_param {
    pixelshuffler: 2
  }
}
layer {
  name: "relu229"
  type: "ReLU"
  bottom: "pxs229"
  top: "relu229"
}
layer {
  name: "subpxconv230"
  type: "Convolution"
  bottom: "relu229"
  top: "subpxconv230"
  convolution_param {
    num_output: 256
    pad: 1
    kernel_size: 3
    stride: 1
    weight_filler {
      type: "xavier"
    }
    bias_filler {
      type: "constant"
    }
  }
}
layer {
  name: "pxs230"
  type: "reshape"
  bottom: "subpxconv230"
  top: "pxs230"
  reshape_param {
    pixelshuffler: 2
  }
}
layer {
  name: "relu230"
  type: "ReLU"
  bottom: "pxs230"
  top: "relu230"
}
layer {
  name: "subpxconv231"
  type: "Convolution"
  bottom: "relu230"
  top: "subpxconv231"
  convolution_param {
    num_output: 256
    pad: 1
    kernel_size: 3
    stride: 1
    weight_filler {
      type: "xavier"
    }
    bias_filler {
      type: "constant"
    }
  }
}
layer {
  name: "pxs231"
  type: "reshape"
  bottom: "subpxconv231"
  top: "pxs231"
  reshape_param {
    pixelshuffler: 2
  }
}
layer {
  name: "relu231"
  type: "ReLU"
  bottom: "pxs231"
  top: "relu231"
}
layer {
  name: "subpxconv232"
  type: "Convolution"
  bottom: "relu231"
  top: "subpxconv232"
  convolution_param {
    num_output: 256
    pad: 1
    kernel_size: 3
    stride: 1
    weight_filler {
      type: "xavier"
    }
    bias_filler {
      type: "constant"
    }
  }
}
layer {
  name: "pxs232"
  type: "reshape"
  bottom: "subpxconv232"
  top: "pxs232"
  reshape_param {
    pixelshuffler: 2
  }
}
layer {
  name: "relu232"
  type: "ReLU"
  bottom: "pxs232"
  top: "relu232"
}
layer {
  name: "subpxconv233"
  type: "Convolution"
  bottom: "relu232"
  top: "subpxconv233"
  convolution_param {
    num_output: 256
    pad: 1
    kernel_size: 3
    stride: 1
    weight_filler {
      type: "xavier"
    }
    bias_filler {
      type: "constant"
    }
  }
}
layer {
  name: "pxs233"
  type: "reshape"
  bottom: "subpxconv233"
  top: "pxs233"
  reshape_param {
    pixelshuffler: 2
  }
}
layer {
  name: "relu233"
  type: "ReLU"
  bottom: "pxs233"
  top: "relu233"
}
layer {
  name: "subpxconv234"
  type: "Convolution"
  bottom: "relu233"
  top: "subpxconv234"
  convolution_param {
    num_output: 256
    pad: 1
    kernel_size: 3
    stride: 1
    weight_filler {
      type: "xavier"
    }
    bias_filler {
      type: "constant"
    }
  }
}
layer {
  name: "pxs234"
  type: "reshape"
  bottom: "subpxconv234"
  top: "pxs234"
  reshape_param {
    pixelshuffler: 2
  }
}
layer {
  name: "relu234"
  type: "ReLU"
  bottom: "pxs234"
  top: "relu234"
}
layer {
  name: "subpxconv235"
  type: "Convolution"
  bottom: "relu234"
  top: "subpxconv235"
  convolution_param {
    num_output: 256
    pad: 1
    kernel_size: 3
    stride: 1
    weight_filler {
      type: "xavier"
    }
    bias_filler {
      type: "constant"
    }
  }
}
layer {
  name: "pxs235"
  type: "reshape"
  bottom: "subpxconv235"
  top: "pxs235"
  reshape_param {
    pixelshuffler: 2
  }
}
layer {
  name: "relu235"
  type: "ReLU"
  bottom: "pxs235"
  top: "relu235"
}
layer {
  name: "subpxconv236"
  type: "Convolution"
  bottom: "relu235"
  top: "subpxconv236"
  convolution_param {
    num_output: 256
    pad: 1
    kernel_size: 3
    stride: 1
    weight_filler {
      type: "xavier"
    }
    bias_filler {
      type: "constant"
    }
  }
}
layer {
  name: "pxs236"
  type: "reshape"
  bottom: "subpxconv236"
  top: "pxs236"
  reshape_param {
    pixelshuffler: 2
  }
}
layer {
  name: "relu236"
  type: "ReLU"
  bottom: "pxs236"
  top: "relu236"
}
layer {
  name: "subpxconv237"
  type: "Convolution"
  bottom: "relu236"
  top: "subpxconv237"
  convolution_param {
    num_output: 256
    pad: 1
    kernel_size: 3
    stride: 1
    weight_filler {
      type: "xavier"
    }
    bias_filler {
      type: "constant"
    }
  }
}
layer {
  name: "pxs237"
  type: "reshape"
  bottom: "subpxconv237"
  top: "pxs237"
  reshape_param {
    pixelshuffler: 2
  }
}
layer {
  name: "relu237"
  type: "ReLU"
  bottom: "pxs237"
  top: "relu237"
}
layer {
  name: "subpxconv238"
  type: "Convolution"
  bottom: "relu237"
  top: "subpxconv238"
  convolution_param {
    num_output: 256
    pad: 1
    kernel_size: 3
    stride: 1
    weight_filler {
      type: "xavier"
    }
    bias_filler {
      type: "constant"
    }
  }
}
layer {
  name: "pxs238"
  type: "reshape"
  bottom: "subpxconv238"
  top: "pxs238"
  reshape_param {
    pixelshuffler: 2
  }
}
layer {
  name: "relu238"
  type: "ReLU"
  bottom: "pxs238"
  top: "relu238"
}
layer {
  name: "subpxconv239"
  type: "Convolution"
  bottom: "relu238"
  top: "subpxconv239"
  convolution_param {
    num_output: 256
    pad: 1
    kernel_size: 3
    stride: 1
    weight_filler {
      type: "xavier"
    }
    bias_filler {
      type: "constant"
    }
  }
}
layer {
  name: "pxs239"
  type: "reshape"
  bottom: "subpxconv239"
  top: "pxs239"
  reshape_param {
    pixelshuffler: 2
  }
}
layer {
  name: "relu239"
  type: "ReLU"
  bottom: "pxs239"
  top: "relu239"
}
layer {
  name: "subpxconv240"
  type: "Convolution"
  bottom: "relu239"
  top: "subpxconv240"
  convolution_param {
    num_output: 256
    pad: 1
    kernel_size: 3
    stride: 1
    weight_filler {
      type: "xavier"
    }
    bias_filler {
      type: "constant"
    }
  }
}
layer {
  name: "pxs240"
  type: "reshape"
  bottom: "subpxconv240"
  top: "pxs240"
  reshape_param {
    pixelshuffler: 2
  }
}
layer {
  name: "relu240"
  type: "ReLU"
  bottom: "pxs240"
  top: "relu240"
}
layer {
  name: "subpxconv241"
  type: "Convolution"
  bottom: "relu240"
  top: "subpxconv241"
  convolution_param {
    num_output: 256
    pad: 1
    kernel_size: 3
    stride: 1
    weight_filler {
      type: "xavier"
    }
    bias_filler {
      type: "constant"
    }
  }
}
layer {
  name: "pxs241"
  type: "reshape"
  bottom: "subpxconv241"
  top: "pxs241"
  reshape_param {
    pixelshuffler: 2
  }
}
layer {
  name: "relu241"
  type: "ReLU"
  bottom: "pxs241"
  top: "relu241"
}
layer {
  name: "subpxconv242"
  type: "Convolution"
  bottom: "relu241"
  top: "subpxconv242"
  convolution_param {
    num_output: 256
    pad: 1
    kernel_size: 3
    stride: 1
    weight_filler {
      type: "xavier"
    }
    bias_filler {
      type: "constant"
    }
  }
}
layer {
  name: "pxs242"
  type: "reshape"
  bottom: "subpxconv242"
  top: "pxs242"
  reshape_param {
    pixelshuffler: 2
  }
}
layer {
  name: "relu242"
  type: "ReLU"
  bottom: "pxs242"
  top: "relu242"
}
layer {
  name: "subpxconv243"
  type: "Convolution"
  bottom: "relu242"
  top: "subpxconv243"
  convolution_param {
    num_output: 256
    pad: 1
    kernel_size: 3
    stride: 1
    weight_filler {
      type: "xavier"
    }
    bias_filler {
      type: "constant"
    }
  }
}
layer {
  name: "pxs243"
  type: "reshape"
  bottom: "subpxconv243"
  top: "pxs243"
  reshape_param {
    pixelshuffler: 2
  }
}
layer {
  name: "relu243"
  type: "ReLU"
  bottom: "pxs243"
  top: "relu243"
}
layer {
  name: "subpxconv244"
  type: "Convolution"
  bottom: "relu243"
  top: "subpxconv244"
  convolution_param {
    num_output: 256
    pad: 1
    kernel_size: 3
    stride: 1
    weight_filler {
      type: "xavier"
    }
    bias_filler {
      type: "constant"
    }
  }
}
layer {
  name: "pxs244"
  type: "reshape"
  bottom: "subpxconv244"
  top: "pxs244"
  reshape_param {
    pixelshuffler: 2
  }
}
layer {
  name: "relu244"
  type: "ReLU"
  bottom: "pxs244"
  top: "relu244"
}
layer {
  name: "subpxconv245"
  type: "Convolution"
  bottom: "relu244"
  top: "subpxconv245"
  convolution_param {
    num_output: 256
    pad: 1
    kernel_size: 3
    stride: 1
    weight_filler {
      type: "xavier"
    }
    bias_filler {
      type: "constant"
    }
  }
}
layer {
  name: "pxs245"
  type: "reshape"
  bottom: "subpxconv245"
  top: "pxs245"
  reshape_param {
    pixelshuffler: 2
  }
}
layer {
  name: "relu245"
  type: "ReLU"
  bottom: "pxs245"
  top: "relu245"
}
layer {
  name: "subpxconv246"
  type: "Convolution"
  bottom: "relu245"
  top: "subpxconv246"
  convolution_param {
    num_output: 256
    pad: 1
    kernel_size: 3
    stride: 1
    weight_filler {
      type: "xavier"
    }
    bias_filler {
      type: "constant"
    }
  }
}
layer {
  name: "pxs246"
  type: "reshape"
  bottom: "subpxconv246"
  top: "pxs246"
  reshape_param {
    pixelshuffler: 2
  }
}
layer {
  name: "relu246"
  type: "ReLU"
  bottom: "pxs246"
  top: "relu246"
}
layer {
  name: "subpxconv247"
  type: "Convolution"
  bottom: "relu246"
  top: "subpxconv247"
  convolution_param {
    num_output: 256
    pad: 1
    kernel_size: 3
    stride: 1
    weight_filler {
      type: "xavier"
    }
    bias_filler {
      type: "constant"
    }
  }
}
layer {
  name: "pxs247"
  type: "reshape"
  bottom: "subpxconv247"
  top: "pxs247"
  reshape_param {
    pixelshuffler: 2
  }
}
layer {
  name: "relu247"
  type: "ReLU"
  bottom: "pxs247"
  top: "relu247"
}
layer {
  name: "subpxconv248"
  type: "Convolution"
  bottom: "relu247"
  top: "subpxconv248"
  convolution_param {
    num_output: 256
    pad: 1
    kernel_size: 3
    stride: 1
    weight_filler {
      type: "xavier"
    }
    bias_filler {
      type: "constant"
    }
  }
}
layer {
  name: "pxs248"
  type: "reshape"
  bottom: "subpxconv248"
  top: "pxs248"
  reshape_param {
    pixelshuffler: 2
  }
}
layer {
  name: "relu248"
  type: "ReLU"
  bottom: "pxs248"
  top: "relu248"
}
layer {
  name: "subpxconv249"
  type: "Convolution"
  bottom: "relu248"
  top: "subpxconv249"
  convolution_param {
    num_output: 256
    pad: 1
    kernel_size: 3
    stride: 1
    weight_filler {
      type: "xavier"
    }
    bias_filler {
      type: "constant"
    }
  }
}
layer {
  name: "pxs249"
  type: "reshape"
  bottom: "subpxconv249"
  top: "pxs249"
  reshape_param {
    pixelshuffler: 2
  }
}
layer {
  name: "relu249"
  type: "ReLU"
  bottom: "pxs249"
  top: "relu249"
}
layer {
  name: "subpxconv250"
  type: "Convolution"
  bottom: "relu249"
  top: "subpxconv250"
  convolution_param {
    num_output: 256
    pad: 1
    kernel_size: 3
    stride: 1
    weight_filler {
      type: "xavier"
    }
    bias_filler {
      type: "constant"
    }
  }
}
layer {
  name: "pxs250"
  type: "reshape"
  bottom: "subpxconv250"
  top: "pxs250"
  reshape_param {
    pixelshuffler: 2
  }
}
layer {
  name: "relu250"
  type: "ReLU"
  bottom: "pxs250"
  top: "relu250"
}
layer {
  name: "subpxconv251"
  type: "Convolution"
  bottom: "relu250"
  top: "subpxconv251"
  convolution_param {
    num_output: 256
    pad: 1
    kernel_size: 3
    stride: 1
    weight_filler {
      type: "xavier"
    }
    bias_filler {
      type: "constant"
    }
  }
}
layer {
  name: "pxs251"
  type: "reshape"
  bottom: "subpxconv251"
  top: "pxs251"
  reshape_param {
    pixelshuffler: 2
  }
}
layer {
  name: "relu251"
  type: "ReLU"
  bottom: "pxs251"
  top: "relu251"
}
layer {
  name: "subpxconv252"
  type: "Convolution"
  bottom: "relu251"
  top: "subpxconv252"
  convolution_param {
    num_output: 256
    pad: 1
    kernel_size: 3
    stride: 1
    weight_filler {
      type: "xavier"
    }
    bias_filler {
      type: "constant"
    }
  }
}
layer {
  name: "pxs252"
  type: "reshape"
  bottom: "subpxconv252"
  top: "pxs252"
  reshape_param {
    pixelshuffler: 2
  }
}
layer {
  name: "relu252"
  type: "ReLU"
  bottom: "pxs252"
  top: "relu252"
}
layer {
  name: "subpxconv253"
  type: "Convolution"
  bottom: "relu252"
  top: "subpxconv253"
  convolution_param {
    num_output: 256
    pad: 1
    kernel_size: 3
    stride: 1
    weight_filler {
      type: "xavier"
    }
    bias_filler {
      type: "constant"
    }
  }
}
layer {
  name: "pxs253"
  type: "reshape"
  bottom: "subpxconv253"
  top: "pxs253"
  reshape_param {
    pixelshuffler: 2
  }
}
layer {
  name: "relu253"
  type: "ReLU"
  bottom: "pxs253"
  top: "relu253"
}
layer {
  name: "subpxconv254"
  type: "Convolution"
  bottom: "relu253"
  top: "subpxconv254"
  convolution_param {
    num_output: 256
    pad: 1
    kernel_size: 3
    stride: 1
    weight_filler {
      type: "xavier"
    }
    bias_filler {
      type: "constant"
    }
  }
}
layer {
  name: "pxs254"
  type: "reshape"
  bottom: "subpxconv254"
  top: "pxs254"
  reshape_param {
    pixelshuffler: 2
  }
}
layer {
  name: "relu254"
  type: "ReLU"
  bottom: "pxs254"
  top: "relu254"
}
layer {
  name: "subpxconv255"
  type: "Convolution"
  bottom: "relu254"
  top: "subpxconv255"
  convolution_param {
    num_output: 256
    pad: 1
    kernel_size: 3
    stride: 1
    weight_filler {
      type: "xavier"
    }
    bias_filler {
      type: "constant"
    }
  }
}
layer {
  name: "pxs255"
  type: "reshape"
  bottom: "subpxconv255"
  top: "pxs255"
  reshape_param {
    pixelshuffler: 2
  }
}
layer {
  name: "relu255"
  type: "ReLU"
  bottom: "pxs255"
  top: "relu255"
}
layer {
  name: "subpxconv256"
  type: "Convolution"
  bottom: "relu255"
  top: "subpxconv256"
  convolution_param {
    num_output: 256
    pad: 1
    kernel_size: 3
    stride: 1
    weight_filler {
      type: "xavier"
    }
    bias_filler {
      type: "constant"
    }
  }
}
layer {
  name: "pxs256"
  type: "reshape"
  bottom: "subpxconv256"
  top: "pxs256"
  reshape_param {
    pixelshuffler: 2
  }
}
layer {
  name: "relu256"
  type: "ReLU"
  bottom: "pxs256"
  top: "relu256"
}
layer {
  name: "conv_out"
  type: "Convolution"
  bottom: "relu256"
  top: "conv_out"
  convolution_param {
    num_output: 3
    pad: 1
    kernel_size: 3
    stride: 1
    weight_filler {
      type: "xavier"
    }
    bias_filler {
      type: "constant"
    }
  }
}
layer {
  name: "conv_out_tanh"
  type: "TanH"
  bottom: "conv_out"
  top: "conv_out_tanh"
}
